assignment2/pretrained_models/model4.pt (torch_old, 3543 bytes, 1 tensors)

weight f4 [1, 784]
00000000: cd93 e5a8 abfe d5a8 194e b4a7 3b3d 3d28
00000010: 1a1f 9c28 10dd c127 44fb a1a8 2dc5 4ba8
00000020: 8a5d 1128 2043 4ca8 9963 d027 925f 3e28
00000030: 6db6 23a8 2b96 dca7 d9d9 3728 bf53 b0a6
00000040: 9c2c d1a8 16ed 7aa7 3f16 a9a8 1353 5327
00000050: c5d4 e3a8 a0bb 6aa8 feaf 3aa8 e792 2127
00000060: b15f 3227 60f3 c628 29a9 5a28 5115 9e28
00000070: 8059 17a7 528b 1428 bc5e aba8 5cd4 fda7
00000080: 33f6 b7a6 8901 e9a8 74e9 ba28 5066 82a7
00000090: 2a01 21a8 46b4 c028 d49b 39a8 159b a128
000000a0: f6ab f627 95c7 eda8 a696 18b6 7f2f ddb6
000000b0: 4948 60b5 372d a3a8 80ca c8a8 1e0e 61a8
000000c0: e000 3f28 781b dca8 0235 ab28 4879 9828
000000d0: 0960 9228 5644 bea8 ea9d ab28 c525 56a7
000000e0: b020 b2a8 857d ad27 776f cba8 2731 55a8
000000f0: ce60 d8a8 87ea bda7 8162 8828 9612 7da8
00000100: 47da 64a7 545f bca8 a32e f9b6 5bfa 64b7
00000110: 0c69 0db7 db0d 9bb7 5e98 4cb7 ecd1 83b7
00000120: 1fe9 83b6 7439 01b6 8927 20b6 98e5 9eb6
00000130: 6ebb 96b5 bfb6 e2a7 d85b e1a8 62b2 b8a8
00000140: a0f8 7528 bb89 b9a6 69f8 66a8 980f 66a8
00000150: 8768 7427 3d6e d5a8 5474 03b4 b963 fab2
00000160: 2eaa 3728 6520 c028 086f 74a6 c04f 7fb5
00000170: 7ba7 10b5 1cc3 32b6 a04f 86b7 e136 2fb8
00000180: 3503 31b8 08fe 22b8 5919 b3b7 5ddd cfb8
00000190: 8bd1 bbb8 2e28 47b8 f3ed 5ab6 d657 67b6
000001a0: cb38 e8b6 dd4d 1fb6 227c 4c36 5662 0435
000001b0: 23e9 c4a8 bd8e cd28 da92 8928 2906 cea8
000001c0: b8e8 e428 d5b2 8fa8 b359 e1b4 c05f 1935
000001d0: fb41 8cb3 0eaf efb6 ed34 0bb7 6cc9 15b7
000001e0: 8fc8 cab7 c4e7 09b7 f78e b3b7 9e43 2eb9
000001f0: 363d fdb9 3482 5aba dd47 90ba 51f1 9aba
00000200: ce12 7fba bb57 84ba cd28 68ba 0c85 29ba
00000210: 8d3a 84b9 e63c e3b8 f32c 6fb6 3d04 4438
00000220: 23da 8f37 ec2f bf28 6741 36a8 8f8b 8128
00000230: cf3c 9fa8 f155 b327 588d 0c34 b548 9635
00000240: cf40 5e37 b325 c536 7b2b 08b6 4e31 7fb7
00000250: 378d ebb7 47f9 90b7 0255 8b36 aee4 18b9
00000260: fb40 40ba 4801 b8ba 586c 04bb 2db8 07bb
00000270: b915 01bb 9b95 0bbb 4179 e1ba f9d6 94ba
00000280: b531 2cba b823 8fb9 2903 5db8 c42a c537
00000290: a993 a137 176c 4db4 97f3 dc34 35b3 6328
000002a0: 6341 c528 dc28 dda8 3fdd 6036 5159 1437
000002b0: 22bb 5138 9034 8238 b948 d438 2a5d c438
000002c0: c1cd ba38 20c2 6839 1f16 a939 4d73 8339
000002d0: 896c 9fb9 eadf a3ba c0d3 00bb f36d 0ebb
000002e0: fa13 0bbb f4db faba 4f75 caba 1b4c 62ba
000002f0: bcd8 f4b9 eb80 2eb9 658c dc37 acc4 7238
00000300: 048f df37 7c49 b734 dc25 3927 30d6 9ca8
00000310: d3f2 b0b5 96d2 0ab7 43ac e0b5 33d6 1039
00000320: 1e99 de39 0400 ce39 5ee2 103a 3e0e 753a
00000330: 44c1 913a 4dcc da3a d677 103b c7cb 203b
00000340: d1b0 fa3a fa7d 703a 61cc 8a38 b43e 01b8
00000350: ed30 b9b9 9d4c 03b8 02e4 113a 1878 623a
00000360: 7710 1e3a 2101 f639 fd53 8d39 cebb a438
00000370: ab01 26b7 0be5 9135 9fb6 4f34 fac3 eda8
00000380: aac5 b3b6 06b2 6c36 0802 b237 99fa 3139
00000390: 201e 083a 927c 4b3a 418a 993a 6032 f23a
000003a0: 865f 153b bd52 473b c4ee 813b b6bf 8c3b
000003b0: b0ad 863b 8630 473b c82a f63a 412e b53a
000003c0: c2cb f13a c11d 213b d778 493b deb3 323b
000003d0: bc48 093b bfb3 b13a daf7 193a 63c0 3339
000003e0: 53dc 9537 6ad3 f3b6 4ea3 dea7 77e3 7ba8
000003f0: 055a 43b6 8661 a537 eec5 e438 3290 8039
-2.5488206e-14 -2.3758195e-14 -5.004471e-15 1.0504885e-14 1.7332967e-14 5.3807937e-15 -1.798356e-14 -1.1311519e-14
8.0694e-15 -1.133883e-14 5.783958e-15 1.0567842e-14 -9.087875e-15 -6.122508e-15 1.0205779e-14 -1.2235153e-15
-2.3223007e-14 -3.4822994e-15 -1.8772417e-14 2.9327167e-15 -2.5294337e-14 -1.3030294e-14 -1.0363236e-14 2.2422874e-15
2.4754337e-15 2.2087963e-14 1.2138112e-14 1.7550768e-14 -2.1003978e-15 8.245861e-15 -1.9025898e-14 -7.0451847e-15
-1.2764908e-15 -2.5868862e-14 2.0751392e-14 -3.6193176e-15 -8.937548e-15 2.1394463e-14 -1.0303353e-14 1.7941847e-14
6.8465156e-15 -2.639884e-14 -2.2737454e-06 -6.5918425e-06 -8.355169e-07 -1.8116244e-14 -2.2292281e-14 -1.249307e-14
1.060282e-14 -2.443682e-14 1.9007802e-14 1.6927987e-14 1.6250905e-14 -2.1123873e-14 1.9053298e-14 -2.971894e-15
-1.9776146e-14 4.8153234e-15 -2.2585868e-14 -1.18345334e-14 -2.40228e-14 -5.2712313e-15 1.5141752e-14 -1.40483514e-14
-3.1759685e-15 -2.0913535e-14 -7.4262075e-06 -1.3648149e-05 -8.428713e-06 -1.8483892e-05 -1.2194823e-05 -1.571417e-05
-3.931243e-06 -1.925594e-06 -2.386487e-06 -4.735495e-06 -1.123042e-06 -6.2925735e-15 -2.5019849e-14 -2.0505465e-14
1.3654144e-14 -1.2874286e-15 -1.282143e-14 -1.2770946e-14 3.3918467e-15 -2.3695559e-14 -1.2242646e-07 -2.9149179e-08
1.01954425e-14 2.1330331e-14 -8.480498e-16 -9.5110954e-07 -5.3887896e-07 -2.6637636e-06 -1.6011123e-05 -4.177436e-05
-4.2203075e-05 -3.8860395e-05 -2.1350266e-05 -9.911761e-05 -8.955885e-05 -4.7482717e-05 -3.2623036e-06 -3.447281e-06
-6.9207504e-06 -2.3738169e-06 3.0470624e-06 4.931693e-07 -2.1861478e-14 2.2821475e-14 1.5273742e-14 -2.2873266e-14
2.541401e-14 -1.5953745e-14 -4.197478e-07 5.7136276e-07 -6.53126e-08 -7.143134e-06 -8.297368e-06 -8.927989e-06
-2.4173669e-05 -8.2197985e-06 -2.1405036e-05 -0.00016619122 -0.00048301526 -0.0008335442 -0.0011007745 -0.0011821185
-0.000973028 -0.0010096946 -0.00088561774 -0.0006466664 -0.00025220626 -0.00010835547 -3.563994e-06 4.673399e-05
1.7148506e-05 2.1226043e-14 -1.0117211e-14 1.4382401e-14 -1.7678918e-14 4.977566e-15 1.3089937e-07 1.1197031e-06
1.3247321e-05 5.8754463e-06 -2.0290888e-06 -1.5210664e-05 -2.8079941e-05 -1.7282217e-05 4.152419e-06 -0.0001458104
-0.00073339016 -0.0014038468 -0.002020618 -0.0020709143 -0.0019696786 -0.0021298889 -0.0017202274 -0.0011355571
-0.0006568686 -0.00027301698 -5.269345e-05 2.3504144e-05 1.9261455e-05 -1.9131436e-07 4.1155428e-07 1.2639891e-14
2.189975e-14 -2.4553649e-14 3.3507383e-06 8.842283e-06 5.0003764e-05 6.2086736e-05 0.000101224934 9.3633615e-05
8.907496e-05 0.00022197561 0.00032250673 0.00025072173 -0.00030407708 -0.0012502645 -0.0019657463 -0.0021733015
-0.0021221624 -0.0019139037 -0.0015446338 -0.00086325564 -0.00046700786 -0.00016641959 2.629142e-05 5.788046e-05
2.6650268e-05 3.4139873e-07 2.569443e-15 -1.7412368e-14 -1.3183693e-06 -8.274472e-06 -1.6739435e-06 0.00013812706
0.0004245722 0.00039291393 0.00055268954 0.00093481306 0.001112022 0.0016692966 0.0022044084 0.0024535523
0.0019126182 0.00091740454 6.618421e-05 -3.0814394e-05 -0.00035322402 -3.1304186e-05 0.0005565287 0.0008639111
0.0006029675 0.00046921617 0.00026956192 7.855111e-05 -9.894759e-06 1.0870002e-06 1.9344814e-07 -2.6397277e-14
-5.357627e-06 3.5270364e-06 2.12202e-05 0.0001697339 0.0005192477 0.0007762398 0.0011714177 0.0018478148
0.0022792532 0.0030414306 0.0039652307 0.0042953147 0.0041100606 0.0030393912 0.001878106 0.0013822989
0.0018447565 0.0024584385 0.0030742192 0.0027267854 0.0020947894 0.0013557597 0.00058734196 0.0001714244
1.786478e-05 -7.266576e-06 -6.1794433e-15 -1.39826225e-14 -2.9109663e-06 1.9714946e-05 0.000109087545 0.00024521496
