assignment2/pretrained_models/model6.pt (torch_old, 3543 bytes, 1 tensors)

weight f4 [1, 784]
00000000: 66db 51a8 513d cfa6 4efd efa6 ad12 6a28
00000010: 73fc 74a7 191a 5ba8 9af4 63a8 1f80 96a8
00000020: 9792 5928 a39a 1f28 a5c7 53a8 acb7 0d28
00000030: 2f32 0028 f1f7 8a26 7d50 1e28 af1a 98a8
00000040: 8e07 8c28 f7f9 26a8 48c4 4528 407f 3fa8
00000050: 133c 47a8 3290 00a8 4b11 6728 8ae3 4727
00000060: 5ae8 83a7 7123 4ea7 03d4 8d26 18a9 14a8
00000070: 7b6e 1ca8 19dd efa7 6e58 9ca8 32a0 34a7
00000080: 9b39 7ea8 d554 9128 bce3 03a8 9840 89a8
00000090: 6863 bca4 3aaa 78a8 b394 67a8 0693 a7a7
000000a0: c34a f427 c292 2828 6de6 a0b6 6f51 7fb7
000000b0: 7ff2 ffb5 97ed 3aa8 8954 8728 d28e 9328
000000c0: d1fa 8b28 787a 9fa7 babc 9f28 6005 9ca8
000000d0: 15c2 6b28 6993 07a8 1659 f9a7 9d2c 70a8
000000e0: 8489 84a7 f63b 59a8 e91c 81a7 36e6 a4a7
000000f0: 6001 8da8 8831 8ea6 2852 9da8 084f 9a28
00000100: 8393 85a7 047f 5a28 7521 23b7 526d 88b7
00000110: 65b2 8137 33bc c3b7 6b1c 7338 3503 d538
00000120: e48e 3f38 b622 8737 440c f836 a881 7d36
00000130: 027b 7035 a051 c927 e7c4 dda5 8804 c3a7
00000140: ec21 13a8 7497 a2a8 ef14 9528 756c 27a8
00000150: 458a c1a6 3446 18a7 b95a 7d35 384a 7134
00000160: c1ef 9ea7 f248 8d28 a725 9028 2c67 a835
00000170: 7cff 2a36 1de3 03b7 a9eb 62b8 5579 1f38
00000180: ed1c c7b8 17e1 89b9 5a7c fab9 06ca 02ba
00000190: 4589 06ba 3a53 c8b8 e7c3 2338 ed9b acb8
000001a0: dba0 39b8 885d 73b8 3d34 04b9 53e7 25b8
000001b0: bde4 1c28 65d0 d127 c007 64a8 1763 6628
000001c0: 3412 7d28 4b14 ed27 3729 5936 1951 bfb4
000001d0: 8054 83b7 d473 51b6 4166 5cb7 3614 3837
000001e0: e47a d235 1871 e3b8 2499 dcb9 6bc8 8fba
000001f0: 95ad 5dbb a8c2 16bc 2283 72bc fc3c 47bc
00000200: 87af 23bc 6290 3fbc 5385 33bc 004c 0abc
00000210: 03ac b2bb 320c 26bb 9a08 42ba ed8b 8bb9
00000220: 49c9 17b9 b908 4aa8 1f5b 6ba8 3eee 7728
00000230: e8fc 53a8 8449 6ea8 f2c4 5937 3e18 3cb6
00000240: ab3e 2738 b040 0b39 4647 5e39 c430 ad39
00000250: f310 093a b9df 2e3a 38af 8638 dcc2 d2ba
00000260: 66c6 cbbb a882 84bc 5b32 c9bc 6a0b cfbc
00000270: 2726 c0bc 45e4 b7bc f902 9bbc 38d3 60bc
00000280: c661 0fbc 68d8 84bb 5ce1 e7ba 6288 2fba
00000290: fb80 adb9 a7af 28b7 5636 77b7 87dd 9aa8
000002a0: 2aad 0f28 cc04 ae27 2d2d 76b8 4d43 dab8
000002b0: 5370 5f38 e78f 263a 82e8 993a eba9 0d3b
000002c0: 540c 563b 0caf 853b 98fc 743b a3d7 d93a
000002d0: 3460 4abb 5cd6 59bc d110 c4bc 7a60 dbbc
000002e0: f8c7 ccbc 9049 b2bc 965f 92bc 507d 49bc
000002f0: 25bd e1bb 27c5 57bb 7998 e4ba 2368 5cba
00000300: ed76 0eb9 6674 21b4 8e0d a3a6 effb bfa5
00000310: 95dd dcb5 beba d7b6 6921 0cb9 0691 5739
00000320: 21eb 8c3a 5908 2d3b 11ee b63b ce29 063c
00000330: ce9a 343c 5f42 523c eccb 6d3c 25f5 783c
00000340: 7cc8 423c 09cb 623a 3b17 2dbc 2ef2 7abc
00000350: 4942 4ebc 3304 e2bb b3a3 1dbb 54d0 183b
00000360: 785a 6a3b dcb4 ad3a a6ff 1c39 94f3 5938
00000370: 0a11 0039 6c58 ec38 fed0 4bb7 2be4 5c28
00000380: d563 e0b6 7bf3 1d38 c03e 293a 002a e33a
00000390: 4991 693b faaa c83b cae7 293c 767b 823c
000003a0: a91f aa3c 10b6 ce3c a90e ef3c 6372 fb3c
000003b0: 514a de3c 4a4f 5d3c 0889 9fba fabb 0dbc
000003c0: 68f1 03bb 89f9 013c 4c52 503c 6a7e 6b3c
000003d0: 41b0 3b3c 0a9a d53b 50b8 2a3b 47f8 953a
000003e0: 0a0b 8639 28d8 b938 0112 c827 e022 5928
000003f0: efc6 1538 2654 da38 2c94 763a ef7d 303b
-1.1649405e-14 -1.438013e-15 -1.6652615e-15 1.2993659e-14 -3.3998655e-15 -1.2162601e-14 -1.2654071e-14 -1.6708909e-14
1.2077706e-14 8.8598045e-15 -1.1756144e-14 7.8669e-15 7.116309e-15 9.642878e-16 8.788215e-15 -1.6886962e-14
1.5546399e-14 -9.269054e-15 1.09782585e-14 -1.0630223e-14 -1.1059746e-14 -7.136695e-15 1.2826826e-14 2.7740147e-15
-3.661172e-15 -2.8607456e-15 9.841306e-16 -8.252317e-15 -8.683696e-15 -6.657554e-15 -1.735783e-14 -2.506686e-15
-1.4112324e-14 1.6135024e-14 -7.321343e-15 -1.5238069e-14 -8.1700404e-17 -1.38036775e-14 -1.285532e-14 -4.6511214e-15
6.780466e-15 9.3576964e-15 -4.7951967e-06 -1.5218145e-05 -1.9069556e-06 -1.0376593e-14 1.5024672e-14 1.6382217e-14
1.5540874e-14 -4.4264146e-15 1.7734393e-14 -1.732181e-14 1.3087205e-14 -7.52597e-15 -6.920797e-15 -1.333235e-14
-3.6786455e-15 -1.2058922e-14 -3.5836037e-15 -4.576874e-15 -1.5654741e-14 -9.866655e-16 -1.7466131e-14 1.7131709e-14
-3.707485e-15 1.2128973e-14 -9.723347e-06 -1.626337e-05 1.546107e-05 -2.3333449e-05 5.796218e-05 0.00010157229
4.5671026e-05 1.6109418e-05 7.392404e-06 3.7775408e-06 8.9585967e-07 5.5877205e-15 -3.8470815e-16 -5.4128285e-15
-8.167495e-15 -1.8051295e-14 1.6551402e-14 -9.29388e-15 -1.3429543e-15 -2.1132295e-15 9.4381863e-07 2.2471875e-07
-4.411375e-15 1.568578e-14 1.600354e-14 1.2547002e-06 2.5480686e-06 -7.861087e-06 -5.4102075e-05 3.8021553e-05
-9.494447e-05 -0.0002629838 -0.00047776365 -0.000498921 -0.0005132149 -9.552245e-05 3.9044677e-05 -8.2306426e-05
-4.4257245e-05 -5.8022822e-05 -0.00012607961 -3.9554503e-05 8.709339e-15 5.8235095e-15 -1.2658223e-14 1.27890515e-14
1.40482684e-14 6.5802716e-15 3.235951e-06 -3.563553e-07 -1.5655765e-05 -3.1210848e-06 -1.313683e-05 1.097196e-05
1.5681985e-06 -0.00010845269 -0.0004207577 -0.0010969763 -0.0033825387 -0.009201683 -0.014801772 -0.012160536
-0.009990579 -0.011692138 -0.01095708 -0.008440971 -0.0054526343 -0.0025336859 -0.00074017944 -0.000266164
-0.00014475467 -1.1215144e-14 -1.3064879e-14 1.3762915e-14 -1.1767693e-14 -1.3227595e-14 1.2980063e-05 -2.8028294e-06
3.9874267e-05 0.00013280171 0.00021198121 0.00033033465 0.0005228661 0.00066709105 6.422255e-05 -0.0016079801
-0.0062187193 -0.016175583 -0.024560144 -0.025273997 -0.023455692 -0.022447715 -0.018922316 -0.0137222335
-0.008751338 -0.004054118 -0.0017691064 -0.0006696043 -0.0003309323 -1.0054478e-05 -1.4734998e-05 -1.7193507e-14
7.975644e-15 4.8299902e-15 -5.8693044e-05 -0.00010407586 5.3271953e-05 0.00063538406 0.0011742266 0.0021616172
0.0032661157 0.004079705 0.0037382003 0.0016620051 -0.0030880095 -0.013295736 -0.0239338 -0.026779402
-0.024997696 -0.021763593 -0.017867845 -0.012297943 -0.006889003 -0.0032923908 -0.001744046 -0.00084078516
-0.00013586479 -1.5036639e-07 -1.1314071e-15 -3.3303935e-16 -1.6455766e-06 -6.429239e-06 -0.00013363887 0.00020558023
0.0010751226 0.002640268 0.005582579 0.008188678 0.011023236 0.012833207 0.014513951 0.015195166
0.0118886195 0.00086514704 -0.010564621 -0.015316529 -0.012589046 -0.0068974732 -0.0024053871 0.0023317533
0.003575949 0.0013252753 0.00014972556 5.196368e-05 0.00012213379 0.00011269827 -1.2148403e-05 1.2261929e-14
-6.687342e-06 3.7658476e-05 0.0006456189 0.0017331243 0.0035639575 0.0061238976 0.010370204 0.015928011
0.02076705 0.025233299 0.029181795 0.030694192 0.027135046 0.0135076735 -0.0012171576 -0.008650774
-0.0020132903 0.007933029 0.012714934 0.014373401 0.011455596 0.006518607 0.00260498 0.001144179
0.00025566696 8.86175e-05 5.553067e-15 1.2053482e-14 3.570964e-05 0.00010410724 0.00094062346 0.002693053
