assignment2/pretrained_models/model1.pt (torch_old, 3543 bytes, 1 tensors)

weight f4 [1, 784]
000000 73 e1 13 ab 1a 3a 73 2a fe 1b 1f a9 80 02 8e ab
       -5.2537765e-13 2.1602894e-13 -3.532937e-14 -1.0090401e-12
000010 33 10 f9 aa 37 70 39 2b af 9d 9a ab 35 f7 90 2b
       -4.4242526e-13 6.588093e-13 -1.0986124e-12 1.0300429e-12
000020 18 d6 9d a9 fc 4b d1 aa 52 f4 40 2a 71 51 3e ab
       -7.00934e-14 -3.7178583e-13 1.7137791e-13 -6.761458e-13
000030 08 55 9f 2a 8b 81 87 aa 8f 84 1c 2b 3e 45 7a ab
       2.8303076e-13 -2.4070706e-13 5.5606295e-13 -8.8913935e-13
000040 61 04 f5 aa 2a c2 8b ab 1f cc 3d 2b 33 45 2a ab
       -4.352378e-13 -9.930435e-13 6.7429563e-13 -6.0492166e-13
000050 db 2d 75 a8 01 09 f7 a9 91 cf d6 aa 5d 7a 8e 2a
       -1.3610175e-14 -1.09705654e-13 -3.8158064e-13 2.5309174e-13
000060 aa f4 44 a9 6b e0 3f 2a ac 50 94 2b 29 38 7e ab
       -4.3732955e-14 1.7042068e-13 1.0538423e-12 -9.0316865e-13
000070 27 6e 15 ab 73 2a 88 ab 81 12 f7 a9 b4 6b 83 ab
       -5.30883e-13 -9.675163e-13 -1.09722134e-13 -9.338003e-13
000080 cf 82 83 ab 75 d8 81 2b f5 20 1f ab a0 99 64 ab
       -9.344417e-13 9.22608e-13 -5.6533885e-13 -8.121507e-13
000090 bf 73 bb aa ba 83 07 ab b8 29 83 ab a5 e5 02 ab
       -3.3298188e-13 -4.814444e-13 -9.319689e-13 -4.6503974e-13
0000a0 ec 46 8a aa 40 c3 21 2b a2 26 df b9 fe dd 2c ba
       -2.4562936e-13 5.7469654e-13 -0.00042562658 -0.0006594359
0000b0 f3 5f c3 b8 8f 12 a0 2a de 00 11 2b 00 e9 e2 2a
       -9.3161965e-05 2.8434587e-13 5.151555e-13 4.030734e-13
0000c0 44 49 ec 2a 4d c5 08 ab c8 09 30 ab b0 a2 2d 2b
       4.197286e-13 -4.8590716e-13 -6.2541335e-13 6.168772e-13
0000d0 0e 30 37 ab a1 22 ca a8 f4 c8 2d ab 99 2c 97 2b
       -6.508135e-13 -2.2441523e-14 -6.1740825e-13 1.0741574e-12
0000e0 5d d3 f2 aa 4d 7c 45 aa 29 4a 2a 2b 37 fd 36 ab
       -4.3134498e-13 -1.754024e-13 6.049905e-13 -6.5010795e-13
0000f0 06 95 7e ab 9a b6 2f 2b ef 61 84 aa 79 7a 19 2a
       -9.044574e-13 6.24259e-13 -2.3515865e-13 1.3631621e-13
000100 e1 35 13 2b b8 1f 85 2b e1 ee 09 b9 70 bc 96 b9
       5.2299663e-13 9.459022e-13 -0.00013154327 -0.00028750626
000110 00 96 75 ba 5a 0d 5b bb d6 e4 51 bb b1 42 85 bb
       -0.000936836 -0.0033424706 -0.0032027266 -0.004066788
000120 a1 a0 37 bb fa 83 a7 ba 38 f8 d0 b9 38 69 d0 b9
       -0.0028019326 -0.0012780421 -0.0003985779 -0.00039751246
000130 c8 b3 c5 b8 0d b1 8d 2b 3e 99 58 ab 2d 0c 58 2b
       -9.427179e-05 1.0067794e-12 -7.695128e-13 7.6755513e-13
000140 a2 8f 09 2a be 17 07 ab 0c 45 0b aa 8a ae 79 ab
       1.2217877e-13 -4.7994584e-13 -1.2369635e-13 -8.870479e-13
000150 b6 53 3e 2b c8 dd 95 ab c9 f1 a7 b7 7b f2 9f b6
       6.761773e-13 -1.0648643e-12 -2.0020541e-05 -4.7667977e-06
000160 6d 70 53 2b 8e 4c 57 2a c6 d1 0d ab 62 b0 a3 b7
       7.511828e-13 1.9122396e-13 -5.038438e-13 -1.9513249e-05
000170 f9 c8 9c b8 37 cf b8 ba d2 57 00 bb 23 1c 50 bb
       -7.476094e-05 -0.0014099841 -0.0019583595 -0.0031755052
000180 e9 5c d4 bb ba 85 6d bc fa eb 9f bc a3 6b b0 bc
       -0.0064808023 -0.014497215 -0.019521702 -0.0215357
000190 3c 44 95 bc a5 25 5d bc 5a de 1a bc 13 b6 d1 bb
       -0.018221013 -0.013497745 -0.009452427 -0.0063998788
0001a0 9d e0 83 bb 1e 01 3f bb 38 5a a7 ba c5 f5 5c b9
       -0.0040245787 -0.0029144953 -0.0012767976 -0.00021072391
0001b0 09 8b 4e aa be 0c 37 ab ed 50 0b 2b 73 59 2c ab
       -1.8344713e-13 -6.5032344e-13 4.9495027e-13 -6.123081e-13
0001c0 c4 36 b9 29 d4 01 4f aa d1 f3 8f b8 7a e2 64 38
       8.225151e-14 -1.8385928e-13 -6.864186e-05 5.457036e-05
0001d0 a7 88 13 b8 e7 a1 83 ba d5 52 93 ba 62 77 cc ba
       -3.51748e-05 -0.0010042757 -0.0011239896 -0.0015599544
0001e0 b7 8d 9f bb 61 60 56 bc c7 aa 04 bd be a6 8a bd
       -0.0048691886 -0.013084502 -0.03238943 -0.06770085
0001f0 7b 99 0d be fd 16 59 be d7 a9 81 be 91 53 83 be
       -0.1382808 -0.21200176 -0.2532489 -0.25649694
000200 14 d1 6e be 2c 03 5c be 26 b2 46 be f8 01 35 be
       -0.23321944 -0.21485585 -0.19403896 -0.17676532
000210 b1 46 0b be 28 d3 ac bd 9e e5 28 bd f9 0a 72 bc
       -0.13601185 -0.08438712 -0.041234605 -0.014773124
000220 69 79 49 bb 89 2b 33 2a b1 ff 51 ab c1 8c 65 2b
       -0.0030742532 1.5913498e-13 -7.460656e-13 8.155248e-13
000230 bc 32 01 2b eb 9e ab aa 72 00 09 b9 aa a8 9a b9
       4.5900415e-13 -3.0485973e-13 -0.00013065504 -0.00029498833
000240 60 cd ee b8 73 8f 9c b9 52 20 b6 3a 0a ad bc 3b
       -0.000113869784 -0.00029861517 0.001389513 0.0057579326
000250 4e bf 2d 3c 56 5b af 3b 8c 17 d8 bc 93 4d c1 bd
       0.010604693 0.0053514643 -0.026378416 -0.09438624
000260 74 54 65 be d3 1d c0 be a0 70 ef be 04 17 fd be
       -0.22395498 -0.37522754 -0.46765614 -0.49431622
000270 cb 77 ec be 47 a6 dc be 44 e2 cc be 02 17 b4 be
       -0.46185145 -0.4309561 -0.40016377 -0.35173804
000280 eb 76 8a be e3 2c 29 be 0a ed a1 bd 1d 0a 03 bd
       -0.27043852 -0.16521029 -0.0790654 -0.031992067
000290 c0 d0 11 bc 70 d3 1e b9 85 e2 4a b8 ed e1 af aa
       -0.008899868 -0.00015146821 -4.8371516e-05 -3.1243012e-13
0002a0 e0 39 74 2b 96 c2 1e aa bd f4 3c 3a 2b af 8d 3a
       8.676653e-13 -1.410073e-13 0.00072080997 0.001080965
0002b0 ee 7b b0 3b ca dd 88 3c cf 1b 09 3d 99 27 7a 3d
       0.0053858673 0.01670732 0.033473786 0.06107292
0002c0 23 7f d4 3d a4 b7 15 3e e1 a2 25 3e a8 52 e5 3d
       0.10375812 0.14620835 0.16175415 0.11197406
0002d0 23 a2 af bc 65 85 49 be 84 35 9f be b8 67 b2 be
       -0.021439617 -0.19679792 -0.31095517 -0.34844756
0002e0 c9 a9 a3 be 98 ef 98 be 6f 5a 9c be 63 7a 8b be
       -0.31965473 -0.29870296 -0.30537745 -0.2724181
0002f0 d4 5e 53 be 5d 04 ea bd ce d3 50 bd d0 4c ab bc
       -0.20641643 -0.114266135 -0.050983243 -0.02091065
000300 32 e3 d9 bb e9 2b 29 37 a1 d2 40 ab 47 f7 53 2b
       -0.0066493982 1.0083409e-05 -6.850441e-13 7.5305425e-13
000310 d6 38 94 37 fd 00 d5 39 bf 27 59 3b 0e 43 32 3c
       1.7669441e-05 0.00040627262 0.0033135263 0.010880245
000320 70 f5 e2 3c b2 15 85 3d 08 35 fc 3d 29 32 4c 3e
       0.027704924 0.06498279 0.123148024 0.1994101
000330 57 51 9a 3e dd 98 ce 3e 35 b0 f9 3e 97 ff fa 3e
       0.30140182 0.40351 0.48767248 0.49023125
000340 95 3d c3 3e 47 14 4c 3e 5d ef 5a 3d 2f 9e 96 3c
       0.3813292 0.1992961 0.05345093 0.018385975
000350 9c 6f 74 3d cb f2 b1 3d 35 0d 8c 3d 0d b3 49 3d
       0.05967675 0.08688887 0.068384565 0.04924302
000360 73 c8 40 3d 68 a4 28 3d 2d 8c fa 3c b7 6b 93 3c
       0.047066163 0.041172415 0.03058442 0.017995698
000370 2e 30 68 3b ad b0 55 3a 01 89 fd b7 95 aa a0 aa
       0.0035429108 0.0008151632 -3.0223748e-05 -2.8540074e-13
000380 5b 96 96 38 66 1a de 3a 41 1c 3f 3c 44 10 02 3d
       7.180563e-05 0.0016945123 0.011664451 0.031753793
000390 5d 3c 88 3d a8 f5 04 3e 63 b2 61 3e 6c 10 b0 3e
       0.066521384 0.12984335 0.22040705 0.3438753
0003a0 0f 9d f4 3e 7f f3 1b 3f 5e 30 3a 3f bb 32 40 3f
       0.47776076 0.6091842 0.7273005 0.7507741
0003b0 39 73 21 3f 4c 05 c9 3e 1d ff 55 3e 25 ea 23 3e
       0.6306644 0.39261854 0.20898099 0.16007288
0003c0 ea 42 7d 3e d5 dc ad 3e c5 7d b5 3e 12 cf a8 3e
       0.24732557 0.33957544 0.35447517 0.32970482
0003d0 f2 69 88 3e db 48 3c 3e 3e b3 d9 3d c2 cc 3d 3d
       0.2664333 0.18387167 0.10629891 0.04633785
0003e0 e8 f8 33 3c f9 d9 c4 3a 20 fb d4 aa 5a 20 51 2b
       0.010984637 0.0015018574 -3.7833018e-13 7.429661e-13
0003f0 25 e4 9c 39 a2 b9 37 3b 35 78 93 3c 67 ad 3d 3d
       0.0002992462 0.002803423 0.018001655 0.046307947
