assignment2/pretrained_models/model0.pt (torch_old, 3543 bytes, 1 tensors)

weight f4 [1, 784]
00000000: 48fd 8a3c b006 cabc 5183 fb3c 4705 a43b
00000010: d149 55bb 2ff4 68bc 0e78 febb 6ace 55bc
00000020: 867c 543c eaf7 463c e1db dcbb 6c37 bebb
00000030: 4aee 7abc 7a27 4fbc fc0d 923c 2321 53bc
00000040: bdbb 1a3c 9c1b f139 e2c3 e53b 4415 6c39
00000050: e94f 163c 95b3 c5bc 65ef 5a3c f21e 4bbc
00000060: 3e54 97bb 72ba 2cbb b37d edbc 4796 bb3c
00000070: da88 053d 76ad 86bc 1bed fe3c 2abf 63bc
00000080: 69ed 44bb 9b64 e53c 7f86 a5bb d1d5 2939
00000090: 2b08 073c 8ab3 edb9 c4f2 e4bc 7748 3cbc
000000a0: 08a9 58ba c872 86bc 1251 de3c fc96 f43b
000000b0: 8fcc 92bc 8a49 463c 8849 06bd ccc1 06ba
000000c0: 8fae cd3c 3eb2 f93c 3656 c43c a61a 59bc
000000d0: 7c33 eabb bcf4 7fbc 99b1 a03c b3b2 e13c
000000e0: 55d3 ab39 a407 16bb df77 1c3a 7e7d 78bc
000000f0: 1231 c5bc 3608 3f3b 6ae2 fb3c 914c d53b
00000100: becf 25bc 7931 ebbb 5b79 233c af77 92bc
00000110: 3285 8e3c ab97 a93c 3abe 923b 742d e53b
00000120: 6cf1 f03c cbbc be3c 3345 02bd 0f54 233c
00000130: 8cc2 c63c bd44 2dbc 818b c0bc 7481 c43c
00000140: 1be4 df3b 2362 c7bc a400 a53c 7e72 66bc
00000150: 1806 01bb ad7f 593c 7385 fa3c 2fa6 63bc
00000160: 2134 7bbc 01ac d9bc 863a b83c a7d8 923b
00000170: 0dd7 de3c 4365 563c 26d6 433a 8f0e 0cbd
00000180: fc22 02bd b9f8 45bc 60f2 04bd 7a90 72bc
00000190: cf33 e4bb e974 183c 042e a7bb a4e9 c23c
000001a0: 7465 68bc 048d c03c def8 953b 7e4d 6c3b
000001b0: 4ca6 febc 571d f6bc a8c5 af3c dea0 a3bc
000001c0: 04d2 8dbc 6815 913c f402 5fbb 5ba5 b33b
000001d0: a8bc cc3b 4230 bfbc 3cc8 ee3c 3301 01bd
000001e0: fc2e febc df98 b8bc 1f7e c9bc 592a bebd
000001f0: 775e 2abe 2b33 59be 7b70 85be 034d 95be
00000200: 1069 87be 26a7 80be 69db 60be 12a7 41be
00000210: ef3c ebbd 23e2 99bd 23d8 35bd 1dbf 5bbc
00000220: e7f0 b5bc 7b66 f33b 1133 d6bc 8232 fe3c
00000230: 375f 013d de19 2abc d206 b93c 5ab6 1838
00000240: 5925 1fbb c0c5 dabc 28f7 10bc c788 bcbb
00000250: 401e 103d 94b4 cc3c b931 b13b 0a2b e9bd
00000260: 9738 83be 9d16 e9be 2194 10bf 9acd 12bf
00000270: 37b5 04bf 29c0 e7be 0234 ddbe cca5 c7be
00000280: 9aa4 97be d2d7 28be 4434 a4bd c9ac 0dbd
00000290: 705c eebc b7cb 50bc d181 79bc d1eb 03bd
000002a0: 8bbc e03c 3e7a 03bd 824c 3abc 44e5 733c
000002b0: e80a 453c 4512 793c 1190 e23b b59d 5b3d
000002c0: 597e d73d 5702 153e 9284 243e 6b6d 963d
000002d0: 7f6a a0bc 84fa 80be d875 dabe 1968 e9be
000002e0: 1355 e6be da6a c2be 5577 bdbe 11dc 90be
000002f0: c5ba 68be 2dfe 01be cdb2 2dbd f769 a5bb
00000300: 7997 c9bc c5f9 a7bc b88f 9e3b 318d 58bb
00000310: 31eb 8cbc f88e e7bc 5282 18bc 84e5 143d
00000320: 8c09 b93c 7a5d a63d 4438 2b3e 738d 813e
00000330: b5b3 b23e 249c ee3e 06bb 083f 8c85 0b3f
00000340: 1ec3 d13e be9c 473e 5506 1d3d 261c 1ebd
00000350: 2829 853b 385c 803d 8b73 cc3d e49b ef3d
00000360: 2451 bc3d 90c6 b93d cf40 3b3d 47db 283d
00000370: 8f4a 9b3c 8e13 d2bc 153f 083c 6a19 853c
00000380: 6d7a 4f3c 2f48 f4bc 8591 a8bb 7c23 0f3d
00000390: 42d7 523d 7890 293e 6745 8f3e 765d dd3e
000003a0: 7e15 1a3f 02f6 363f de0b 5b3f 45e0 5c3f
000003b0: d0e6 443f 88cd f13e 6911 613e 4fb0 403e
000003c0: f329 9e3e 2123 d13e 06c1 e13e 90e8 f33e
000003d0: 7ba9 ba3e b8e7 6a3e a0e8 f23d f8a9 463d
000003e0: 7e69 b43c d18f f53c 537f 82bc 8535 88bc
000003f0: 6208 c6bc a763 a73c a84b 463d 9409 913d
0.016966477 -0.024661392 0.030702265 0.005005512 -0.0032545219 -0.014218374 -0.0077657765 -0.013049701
0.012969142 0.012144068 -0.006740079 -0.0058049466 -0.015315602 -0.012643689 0.017828934 -0.012886318
0.009444174 0.00045987673 0.0070118764 0.00022514636 0.0091743255 -0.024133483 0.01336274 -0.012397515
-0.0046181967 -0.0026356247 -0.028990602 0.022898806 0.032601215 -0.016440134 0.03111892 -0.0139005575
-0.0030048734 0.028002074 -0.0050514336 0.00016196749 0.0082416935 -0.0004533793 -0.02794779 -0.011491886
-0.0008264934 -0.016412154 0.027138267 0.007464288 -0.017919807 0.012102494 -0.03278497 -0.00051405723
0.02510765 0.0304805 0.02396689 -0.013250982 -0.0071472507 -0.015622314 0.019615935 0.02755103
0.00032773116 -0.0022892738 0.000596879 -0.015166638 -0.02407125 0.0029149181 0.030747611 0.0065093716
-0.01012033 -0.0071775285 0.009977664 -0.017879335 0.017397497 0.020702204 0.004478243 0.006993944
0.029411994 0.023283383 -0.031804275 0.009968772 0.024262689 -0.0105754705 -0.02350402 0.02398751
0.006832612 -0.024338787 0.020141907 -0.014065383 -0.001968747 0.013275069 0.030581212 -0.013894602
-0.015332253 -0.026571276 0.022488844 0.0044813934 0.027202154 0.013085666 0.000747057 -0.03419357
-0.031771645 -0.012083226 -0.03245771 -0.014804954 -0.006964184 0.009305217 -0.005101921 0.02379305
-0.014184345 0.023504741 0.0045767864 0.003605693 -0.031085156 -0.030043287 0.021456555 -0.019974168
-0.017312057 0.017710403 -0.003402886 0.0054823584 0.0062480755 -0.02333844 0.029148214 -0.031495284
-0.031028263 -0.022533832 -0.024596272 -0.09285421 -0.16637598 -0.21210925 -0.26062378 -0.29160318
-0.26447344 -0.25127524 -0.21958698 -0.18911389 -0.114862315 -0.07513835 -0.044395577 -0.013412264
-0.022209598 0.007427988 -0.026147397 0.031029943 0.031584945 -0.010382144 0.02258626 3.6409452e-05
-0.0024283736 -0.026705623 -0.008847989 -0.00575361 0.0351851 0.02498845 0.0054075387 -0.11385162
-0.25629112 -0.45525065 -0.56476027 -0.57344973 -0.5183901 -0.45263794 -0.4320374 -0.3899368
-0.2961777 -0.16488579 -0.080177814 -0.03458861 -0.029096812 -0.012743882 -0.015228705 -0.032207314
0.027433654 -0.032099 -0.01137078 0.014886204 0.012026526 0.01520211 0.0069141467 0.053617198
0.10522146 0.14551674 0.16066197 0.073450886 -0.019582031 -0.25191128 -0.42668033 -0.45587233
-0.4498678 -0.37972146 -0.37005106 -0.28292897 -0.22727497 -0.12694617 -0.042406846 -0.0050480324
-0.02460836 -0.020504842 0.00483891 -0.003304314 -0.017201992 -0.028266415 -0.0093084145 0.036351696
0.02258756 0.08123298 0.16720682 0.2530323 0.3490273 0.466035 0.53410375 0.5450065
0.40969175 0.19493386 0.038336117 -0.038601063 0.004063744 0.06267589 0.099829756 0.11699656
0.09195164 0.09071076 0.045716103 0.041224744 0.01895645 -0.02564409 0.008315821 0.01624747
0.012663466 -0.029819576 -0.0051443004 0.03494595 0.051474817 0.16559017 0.27982637 0.43235368
0.60189044 0.7146913 0.8556498 0.8627971 0.7691469 0.4722712 0.21979298 0.18817256
0.3089138 0.40847114 0.44092578 0.4763837 0.36457428 0.22939956 0.11860776 0.04850194
0.022022959 0.029975804 -0.015929854 -0.016627083 -0.02417392 0.02043326 0.048411995 0.07081905
