assignment2/pretrained_models/model7.pt (torch_old, 3543 bytes, 1 tensors)

weight f4 [1, 784]
000000 a3 09 18 37 e3 7f 3d b6 63 b4 a3 35 bd 1c 29 b7
       9.06215e-06 -2.8237635e-06 1.2196946e-06 -1.0079876e-05
000010 b2 64 33 b6 17 34 3e b6 dd ab e3 b5 cf 90 ba 36
       -2.673169e-06 -2.8342527e-06 -1.6962837e-06 5.56009e-06
000020 b3 23 29 b6 45 66 89 33 95 27 dd 36 23 4e f6 b6
       -2.5203742e-06 6.3981624e-08 6.590921e-06 -7.3404676e-06
000030 2c b3 03 b7 23 70 07 37 a3 cc fc b5 06 c8 9a 36
       -7.849925e-06 8.072736e-06 -1.883502e-06 4.6128434e-06
000040 98 ca 2a 36 5b 3c b3 b6 95 80 c4 b6 d1 d2 4b b6
       2.54499e-06 -5.341642e-06 -5.856224e-06 -3.0372069e-06
000050 b7 be 8f b6 b6 80 86 36 11 97 1e b7 40 ec 63 36
       -4.2839342e-06 4.008495e-06 -9.452707e-06 3.3963152e-06
000060 f0 a5 c6 b6 8b 40 16 37 27 3f 07 b5 12 77 08 b7
       -5.9201775e-06 8.955724e-06 -5.038332e-07 -8.133955e-06
000070 a4 de 88 b5 fc ed 84 36 da 30 39 36 85 90 70 b6
       -1.0197587e-06 3.9616116e-06 2.7595584e-06 -3.5846908e-06
000080 44 0e 4b b5 4b 46 b9 36 04 5a 13 b7 4a b0 6c b6
       -7.564415e-07 5.521613e-06 -8.782841e-06 -3.5269354e-06
000090 be 57 d4 35 c4 67 c0 b6 fd b7 38 36 37 d1 b7 b6
       1.5820767e-06 -5.734126e-06 2.7525232e-06 -5.478181e-06
0000a0 a8 c7 59 36 33 d8 90 b5 58 e9 eb b7 92 30 19 b7
       3.2451735e-06 -1.0791758e-06 -2.8122842e-05 -9.130819e-06
0000b0 98 90 31 b4 93 c4 04 b7 99 ad 22 b6 b6 33 24 b5
       -1.6537012e-07 -7.913582e-06 -2.4240928e-06 -6.117001e-07
0000c0 e1 1c 37 b6 e6 9d aa b6 f4 a3 af b5 59 e8 1e b7
       -2.7285935e-06 -5.0847766e-06 -1.3086233e-06 -9.4716315e-06
0000d0 23 f2 0e b7 08 67 b5 b6 8a be 25 b7 85 6f 39 36
       -8.520236e-06 -5.4062148e-06 -9.87913e-06 2.763206e-06
0000e0 e7 53 da 36 b6 f1 87 36 74 ac 17 b7 a7 6a 26 b7
       6.506674e-06 4.0514524e-06 -9.040454e-06 -9.919203e-06
0000f0 0d 96 21 b7 1a e3 94 36 58 18 88 b5 45 19 0b b6
       -9.631284e-06 4.437182e-06 -1.0139875e-06 -2.0727323e-06
000100 21 ee 97 b6 56 f7 3d 36 6c 3a 4a 36 90 0f 2f b7
       -4.5278725e-06 2.8307163e-06 3.0134352e-06 -1.0434436e-05
000110 9c 12 32 36 63 75 a5 38 f9 21 ef 32 ce 15 a9 b7
       2.65349e-06 7.889678e-05 2.7838711e-08 -2.0156524e-05
000120 64 82 3b b8 6b 79 b9 36 79 c5 6e 37 ab db 41 36
       -4.470571e-05 5.5275646e-06 1.4231883e-05 2.8887105e-06
000130 0e 26 6f b6 41 a5 e7 36 3c da 2e 36 99 de 6c 36
       -3.5635926e-06 6.9035746e-06 2.605505e-06 3.529631e-06
000140 de 40 24 b7 ea 5b 1e b7 1f 18 c5 36 f4 1b 8b 35
       -9.790265e-06 -9.438934e-06 5.8738656e-06 1.0364442e-06
000150 c8 1b 81 b5 2f f4 18 36 dd 66 b0 b6 a0 ef 0d 37
       -9.619334e-07 2.2791899e-06 -5.2571836e-06 8.460047e-06
000160 66 b7 39 35 10 5c 0e 36 08 4a cb b6 13 c0 1f 37
       6.918475e-07 2.1213236e-06 -6.05849e-06 9.521859e-06
000170 17 3d d0 36 bc 7e bf 35 bc 45 c6 33 2a 5f cf 37
       6.205995e-06 1.4267493e-06 9.232778e-08 2.4720637e-05
000180 d2 10 aa 37 61 18 94 38 11 de 4b b8 b2 f6 a0 b8
       2.0273412e-05 7.061731e-05 -4.8605787e-05 -7.675345e-05
000190 ba 6e 45 b9 43 0d 2e b8 ea 02 ac 38 9a f5 18 39
       -0.00018828633 -4.1497184e-05 8.202142e-05 0.00014587343
0001a0 93 e1 8a 38 b1 a9 af 38 d7 2d 27 38 1a ad 97 37
       6.622369e-05 8.376258e-05 3.9858594e-05 1.808121e-05
0001b0 e3 5a fa 35 65 af 1b b7 60 b1 eb 35 da 53 12 37
       1.8652903e-06 -9.279557e-06 1.7560487e-06 8.721801e-06
0001c0 bd c9 a5 b6 c4 09 17 37 6f bd f9 b6 7b 0b 08 37
       -4.9408686e-06 9.002575e-06 -7.4428312e-06 8.108905e-06
0001d0 e9 02 46 37 4a 52 6a 36 79 3c ba b5 02 0b 09 b7
       1.1802397e-05 3.4916616e-06 -1.387568e-06 -8.168399e-06
0001e0 7e 7c 6c 36 ff 5e 3b 36 a1 30 ef b7 6d d5 9c 37
       3.5239204e-06 2.7920466e-06 -2.8513665e-05 1.8696033e-05
0001f0 00 53 08 3a 1d fe 07 b9 4e 92 d0 bb 6b 0a bb bb
       0.0005200356 -0.00012969268 -0.006365097 -0.005708029
000200 e0 cd ed ba de f9 95 39 f0 c2 9f 3a e4 ae 4d 3a
       -0.001814302 0.0002860566 0.0012188833 0.000784619
000210 ff 02 1c 3a 70 37 a4 39 5f c5 3d 39 ef 36 20 39
       0.0005951374 0.00031321822 0.00018097971 0.00015279253
000220 67 e9 6e 38 e3 9c 15 37 5e a9 bf 36 2b be ae b4
       5.6960995e-05 8.91762e-06 5.7119605e-06 -3.254839e-07
000230 fc c7 d5 35 22 00 4b b6 83 ab 02 b7 e9 8c 1a 36
       1.592794e-06 -3.0249435e-06 -7.788537e-06 2.3029809e-06
000240 b0 a2 5b b7 b7 9a 42 b7 fd 1e 00 b9 ae e0 29 b8
       -1.3091296e-05 -1.1599323e-05 -0.00012218575 -4.050199e-05
000250 da 2b 25 39 31 7b 25 39 ed 11 74 37 ce ef 5e b9
       0.00015751962 0.00015781519 1.4547707e-05 -0.00021260904
000260 6a d3 88 39 7c 8e 03 3a 09 69 e9 bb 25 b8 19 bc
       0.00026097457 0.0005018485 -0.007123117 -0.009382282
000270 31 8e 0a bb 08 8c 9d 3a 35 e4 ab 3a 2d 13 88 3a
       -0.0021141882 0.0012019882 0.0013114276 0.0010381691
000280 80 fd 75 38 f9 a9 79 38 ce 53 b3 39 3e ea 94 39
       5.8648642e-05 5.9524526e-05 0.0003420398 0.00028403284
000290 b2 11 3e 38 09 bd 68 36 0a c1 2b b6 81 e1 2a 37
       4.531601e-05 3.4680727e-06 -2.559335e-06 1.0185294e-05
0002a0 d5 ca cd 36 71 43 13 b7 ad bc 32 37 91 78 cc 38
       6.133089e-06 -8.777585e-06 1.0653556e-05 9.749935e-05
0002b0 84 4f 0a 38 05 ad 24 b9 62 5c 87 b9 d6 5c 8e b8
       3.297582e-05 -0.00015704714 -0.00025818037 -6.78838e-05
0002c0 29 88 5d 38 30 24 86 b9 e2 d4 45 ba 8d c2 5b ba
       5.2817315e-05 -0.00025585433 -0.00075466756 -0.00083831773
0002d0 e6 59 c5 b9 81 7f 8b b8 b2 0e 9b bb 19 bb e1 bb
       -0.00037641748 -6.651786e-05 -0.0047319764 -0.006888759
0002e0 14 ac c1 bb 07 52 ed b8 ca 14 96 39 24 7b 97 38
       -0.005910406 -0.000113163194 0.0002862572 7.223178e-05
0002f0 62 fe 2a b9 38 92 63 b8 bc d8 90 39 c4 68 62 39
       -0.00016307228 -5.4257194e-05 0.000276273 0.00021592068
000300 48 35 e1 38 1a 96 fd b6 da f1 e8 b6 81 f2 cf b5
       0.000107387605 -7.5574617e-06 -6.942294e-06 -1.549328e-06
000310 2c 06 44 b6 b5 a4 8b 36 eb ab e9 38 83 2c 84 39
       -2.9209868e-06 4.1616972e-06 0.00011142328 0.00025210166
000320 67 50 c1 b8 04 5e 1f 3a c8 7b 29 3b fc a6 73 3b
       -9.217933e-05 0.0006079378 0.0025861133 0.0037178388
000330 7c a0 a6 3b dd 9d 8b 3b 71 ac e0 3a fb 44 4f 3a
       0.005085049 0.004260762 0.0017141235 0.0007906702
000340 99 53 84 39 56 bc 3f bb 84 9b de bb 35 c1 10 bc
       0.00025239287 -0.0029256544 -0.0067934413 -0.008835127
000350 85 3e 01 bc f6 e6 16 bb 9f 51 a7 b9 27 3a 7a 3a
       -0.007888441 -0.0023025847 -0.00031913535 0.00095454085
000360 1a 6e ae 39 ca dc e3 38 57 0e 69 39 42 d9 f7 39
       0.00033269898 0.00010865329 0.00022225954 0.0004727338
000370 79 d1 d1 38 18 a1 ee b7 66 c9 28 37 14 5b da b6
       0.00010004914 -2.8446826e-05 1.0060472e-05 -6.507509e-06
000380 b9 f1 8e b7 e9 35 c2 b7 71 ae b8 38 d0 88 5f 39
       -1.704028e-05 -2.3151706e-05 8.806296e-05 0.00021317904
000390 e3 b8 0d 3a 62 3d d4 3a 05 8a 82 3b 10 a6 b5 3b
       0.00054062734 0.001619261 0.0039837384 0.005543478
0003a0 79 51 f4 3b 77 2e ce 3b b7 44 de 3b e9 f1 d3 3b
       0.0074560014 0.00629216 0.006783094 0.006468047
0003b0 dc de a4 3b 17 2a 08 3b 94 c8 09 bb 94 cc ab bb
       0.0050314497 0.002077704 -0.0021024095 -0.0052428935
0003c0 68 3d 9c bb 62 cf d6 39 f4 3d de 3a 6d 07 2a 3b
       -0.0047680624 0.00040971773 0.0016955719 0.0025944368
0003d0 d4 0b 88 3a 5f 30 31 b7 52 db 0b 3a 82 98 b4 39
       0.0010379502 -1.0561284e-05 0.00053351105 0.00034445903
0003e0 97 3f 44 38 fb af 25 b8 7d 82 b0 b6 57 7a 05 36
       4.6789264e-05 -3.950296e-05 -5.2603996e-06 1.9889756e-06
0003f0 a4 d8 01 b7 22 17 a7 b8 25 0f cf 38 04 39 c3 38
       -7.73944e-06 -7.9674894e-05 9.87335e-05 9.3089446e-05
