assignment2/pretrained_models/model3.pt (torch_old, 3543 bytes, 1 tensors)

weight f4 [1, 784]
3e-45 -0.0 3e-45 -6e-45 6e-45 4e-45 -1e-45 -3e-45
-4e-45 4e-45 -4e-45 3e-45 7e-45 -1e-45 4e-45 3e-45
-4e-45 6e-45 -7e-45 -6e-45 8e-45 -4e-45 1e-44 -0.0
-8e-45 -0.0 3e-45 -7e-45 6e-45 6e-45 -8e-45 4e-45
-6e-45 7e-45 3e-45 6e-45 -6e-45 -4e-45 3e-45 -4e-45
3e-45 -7e-45 3.47067e-05 5.9332746e-05 8.208763e-06 -7e-45 -7e-45 3e-45
-0.0 1e-44 6e-45 4e-45 -4e-45 1e-45 4e-45 8e-45
4e-45 -6e-45 -4e-45 1e-45 -6e-45 6e-45 -7e-45 -4e-45
-4e-45 4e-45 2.024215e-05 3.6195728e-05 1.21509365e-05 -0.0001973564 -0.0006971116 -0.0012136775
-0.00037888341 6.4516644e-05 -0.00010364963 -0.00025200367 -5.9763726e-05 -7e-45 -7e-45 -3e-45
3e-45 -7e-45 -3e-45 -4e-45 -7e-45 6e-45 5.333462e-06 1.2698719e-06
-3e-45 1e-45 -4e-45 -2.9483861e-05 -1.15684325e-05 -0.00030905876 -0.0005433474 -0.0005155867
-0.0006131327 -0.0021382738 -0.004099134 -0.005001146 -0.0043704915 -0.0026985176 -0.0018348835 -0.0016653816
-0.0012044386 -0.0010127457 -0.00027934965 7.298465e-06 6e-45 -4e-45 6e-45 -4e-45
0.0 6e-45 1.8286157e-05 -1.8557943e-05 -6.5750675e-05 -0.00021099232 -0.0001800974 -0.00044076805
-0.0006786536 -0.001634672 -0.0047705355 -0.011686304 -0.029707681 -0.058855142 -0.073185906 -0.07507567
-0.07071621 -0.06541718 -0.058011748 -0.051670182 -0.03739806 -0.02235543 -0.0112941135 -0.0045519634
-0.00085742417 -1e-45 8e-45 -1e-45 -4e-45 7e-45 -4.8146674e-05 -0.0002005045
-5.8492395e-05 0.00049528014 0.00030978693 -0.00029600857 -6.172586e-05 -0.0008021794 -0.0050562657 -0.01670179
-0.047046307 -0.097490534 -0.14118293 -0.15393744 -0.14399567 -0.1315812 -0.11670762 -0.09723779
-0.069154985 -0.038496774 -0.017646294 -0.0069041788 -0.001851033 -4.2644657e-05 -1.6639668e-05 -3e-45
4e-45 3e-45 -7.916253e-05 -0.00018936433 0.0013965406 0.0034937176 0.008141431 0.013008932
0.01995157 0.02733001 0.030081052 0.018130612 -0.013497631 -0.07489833 -0.131244 -0.14959468
-0.1403952 -0.12617265 -0.11408978 -0.09163829 -0.060916908 -0.028787876 -0.012505522 -0.004200511
-0.0013259295 -2.7071363e-07 -4e-45 6e-45 -4.884116e-06 -3.032841e-05 0.0003335998 0.0028262583
0.009602429 0.01964646 0.035112556 0.055644363 0.07742476 0.10060398 0.12034906 0.121139094
0.093884856 0.0333853 -0.028079601 -0.051898435 -0.039133992 -0.017950676 -0.0029577515 0.006139225
0.016797831 0.016267247 0.010683509 0.004757575 0.000580015 4.9347374e-05 -8.420623e-06 -6e-45
-1.9848212e-05 0.000532926 0.0035146698 0.010266652 0.02509365 0.046908807 0.07296816 0.11161058
0.14707589 0.18216987 0.21492293 0.22405131 0.20454185 0.1308727 0.051169164 0.013594931
0.032684717 0.07549461 0.10383753 0.10796669 0.09116728 0.060248516 0.033254396 0.013350729
0.0025648337 0.00031898235 -7e-45 -7e-45 0.00010416034 0.0009582258 0.006023475 0.017644292
00000000: 0200 0000 0000 0080 0200 0000 0400 0080
00000010: 0400 0000 0300 0000 0100 0080 0200 0080
00000020: 0300 0080 0300 0000 0300 0080 0200 0000
00000030: 0500 0000 0100 0080 0300 0000 0200 0000
00000040: 0300 0080 0400 0000 0500 0080 0400 0080
00000050: 0600 0000 0300 0080 0700 0000 0000 0080
00000060: 0600 0080 0000 0080 0200 0000 0500 0080
00000070: 0400 0000 0400 0000 0600 0080 0300 0000
00000080: 0400 0080 0500 0000 0200 0000 0400 0000
00000090: 0400 0080 0300 0080 0200 0000 0300 0080
000000a0: 0200 0000 0500 0080 0992 1138 0ddc 7838
000000b0: 5eb8 0937 0500 0080 0500 0080 0200 0000
000000c0: 0000 0080 0700 0000 0400 0000 0300 0000
000000d0: 0300 0080 0100 0000 0300 0000 0600 0000
000000e0: 0300 0000 0400 0080 0300 0080 0100 0000
000000f0: 0400 0080 0400 0000 0500 0080 0300 0080
00000100: 0300 0080 0300 0000 b0cd a937 ded0 1738
00000110: e0db 4b37 75f1 4eb9 5ebe 36ba 4214 9fba
00000120: dfa4 c6b9 1c4d 8738 795e d9b8 5c1f 84b9
00000130: d0aa 7ab8 0500 0080 0500 0080 0200 0080
00000140: 0200 0000 0500 0080 0200 0080 0300 0080
00000150: 0500 0080 0400 0000 17f6 b236 7770 aa35
00000160: 0200 0080 0100 0000 0300 0080 1c54 f7b7
00000170: 0a16 42b7 2a09 a2b9 6d6f 0eba 7028 07ba
00000180: a4ba 20ba 4822 0cbb 0752 86bb a7e0 a3bb
00000190: 5736 8fbb 9dd9 30bb 7980 f0ba ef48 daba
000001a0: 41de 9dba 1bbe 84ba ad75 92b9 56e5 f436
000001b0: 0400 0000 0300 0080 0400 0000 0300 0080
000001c0: 0000 0000 0400 0000 3965 9937 e1ac 9bb7
000001d0: a0e3 89b8 d23d 5db9 87d8 3cb9 e316 e7b9
000001e0: ace7 31ba 7e42 d6ba 2752 9cbb e977 3fbc
000001f0: 865d f3bc 1712 71bd 7ee2 95bd 46c1 99bd
00000200: a9d3 90bd 71f9 85bd ba9d 6dbd 1da4 53bd
00000210: b52e 19bd bc22 b7bc f20a 39bc a328 95bb
00000220: c3c4 60ba 0100 0080 0600 0000 0100 0080
00000230: 0300 0080 0500 0000 19f1 49b8 843e 52b9
00000240: bb55 75b8 b0d5 013a e66a a239 9931 9bb9
00000250: d272 81b8 5949 52ba 08af a5bb 31d2 88bc
00000260: a1b3 40bd 1ea9 c7bd 4292 10be c7a1 1dbe
00000270: 9a73 13be 39bd 06be 6804 efbd 9b24 c7bd
00000280: 21a1 8dbd cbae 1dbd f68e 90bc 733c e2bb
00000290: 5c9e f2ba 5add 32b8 6a95 8bb7 0200 0080
000002a0: 0300 0000 0200 0000 0f04 a6b8 1a90 46b9
000002b0: 200c b73a dbf6 643b a363 053c 6a23 553c
000002c0: 7a71 a33c 2fe3 df3c 8a6c f63c a686 943c
000002d0: 2b25 5dbc 4c64 99bd d464 06be 592f 19be
000002e0: c2c3 0fbe 6733 01be e7a7 e9bd dbac bbbd
000002f0: 0284 79bd 8dd4 ebbc f6e3 4cbc 71a4 89bb
00000300: d0ca adba 9956 91b4 0300 0080 0400 0000
00000310: 3de2 a3b6 c469 feb7 02e7 ae39 bf38 393b
00000320: 8253 1d3c 9df1 a03c 2fd2 0f3d 58eb 633d
00000330: df90 9e3d 7609 ce3d 9179 f63d c617 f83d
00000340: b446 c03d 06bf 083d 3107 e6bc 7493 54bd
00000350: f74a 20bd 4c0d 93bc d6d6 41bb 8d2b c93b
00000360: 9b9b 893c e442 853c e209 2f3c 6fe5 9b3b
00000370: 260c 183a 57fa 4e38 4d46 0db7 0400 0080
00000380: b67f a6b7 0fb4 0b3a 6056 663b 7635 283c
00000390: 3391 cd3c 7323 403d 5570 953d 1694 e43d
000003a0: 109b 163e bd8a 3a3e c214 5c3e b56d 653e
000003b0: 6b73 513e 7e03 063e c296 513d 46bd 5e3c
000003c0: 69e0 053d eb9c 9a3d c5a8 d43d a41d dd3d
000003d0: e9b5 ba3d 26c7 763d c335 083d 04bd 5a3c
000003e0: c516 283b 163d a739 0500 0080 0500 0080
000003f0: a870 da38 7231 7b3a 9260 c53b c38a 903c
