assignment2/pretrained_models/model2.pt (torch_old, 3543 bytes, 1 tensors)

weight f4 [1, 784]
00000000: 2167 39b6 b649 2fb6 5933 0137 4dfa f436
00000010: cc87 e636 7b8b 50b6 602f 0337 9774 87b6
00000020: 4a38 1ab6 69ff bfb6 1b6c 85b6 0d00 a236
00000030: 2005 cfb6 c600 f436 e8cc 3836 804e ab36
00000040: 97b3 47b6 7c43 c5b5 f86f 8bb5 a699 7936
00000050: f041 5c36 25d5 6bb5 f816 b836 2f65 f5b6
00000060: c14e 7eb6 84bf b436 a2fe f0b5 4c6f 3836
00000070: dfd5 b336 d593 9735 4aab 5e36 91ca 8836
00000080: 3e05 a834 9f22 03b7 3c2c ff36 e554 3ab6
00000090: 168a 29b6 c0b9 d3b6 5e2b 9635 e7fb 51b6
000000a0: 162c ceb6 ecbc 91b5 1bff 08b9 5b44 1ab9
000000b0: a7c6 feb7 d39f 83b6 fc3e de36 bc7d bdb6
000000c0: 4e59 e536 dab5 92b6 a803 be36 7b31 b2b4
000000d0: 038d 2036 0343 75b4 7ab1 a3b6 8b92 dbb6
000000e0: 1bc4 2736 bf34 5336 235b d336 0416 4436
000000f0: 164a 2536 7869 f835 3eee 7b35 ba9c 1a35
00000100: 5189 86b6 02d5 9e34 3ed6 33b6 6f0a adb7
00000110: f451 3fb8 8c52 0a38 e39d b3b8 52f6 5eb9
00000120: b418 88b9 75ea f4b7 4a09 93b6 4106 feb7
00000130: 0fd1 13b7 c3cf 91b6 fabb 98b4 f8cc f735
00000140: dd30 bfb6 6607 b0b6 2556 5a36 f5b1 f3b6
00000150: f675 da34 5465 fc36 236c 06b7 38e8 28b6
00000160: a39e bcb6 3b36 0037 e35a 3636 4ba6 c1b5
00000170: 7386 c4b5 c4b9 a8b8 df7d f7b8 cbc7 98b7
00000180: c748 fb35 b94f a9b8 7f6b 39b9 b645 23ba
00000190: 950c f6b9 7da9 ccb9 3ef1 83b8 3392 92b8
000001a0: ede6 63b8 eb5c e3b8 35c5 3eb8 2307 6bb5
000001b0: f219 8436 7552 e2b6 c745 d436 e951 1a36
000001c0: 6e45 4c36 e722 c8b6 317a 9eb7 0e1c 3838
000001d0: 42f1 a738 7f7d 90b8 bee5 05b9 2a73 28b9
000001e0: a049 fbb8 7931 a7b9 7d81 1aba a787 90ba
000001f0: 21cf f8ba 9528 8abb f30c 1abc 0830 5fbc
00000200: 03ed 54bc 6246 0fbc 1dbe b0bb 2ea7 bbbb
00000210: b721 e2bb c18d a8bb 8c5c 68ba 9cc2 2138
00000220: bcb1 d938 6661 30b5 145d a135 65f1 3735
00000230: 543b f936 c1d4 7835 0a2a 8236 dd5f e437
00000240: 3cb7 8837 cd9c 2fb8 286b 5138 5d0a a9b7
00000250: 42de 5cb9 ea47 afb9 8d66 21b9 778b 3fba
00000260: 2491 49bb c952 12bc 75b8 9abc 4f05 dcbc
00000270: 81bb ccbc 64ff aabc 406b 81bc 4939 49bc
00000280: b1c4 28bc 7559 acbb aa9e 74ba 769d 5139
00000290: 0b77 8f39 fc78 8e36 935c 8537 116c c0b5
000002a0: 36a9 a0b6 666e 0337 b142 1538 6660 bcb8
000002b0: 339c 9939 6376 5a3a 3dd9 b43a 4f0f b23a
000002c0: 03b0 d23a 58e6 3b3b 2f3b 8d3b ab0b 3a3b
000002d0: 123b a6b9 c963 e7bb 39c2 a0bc 75aa ddbc
000002e0: 9f6b cdbc 9c74 abbc b50f 7abc 46e9 0dbc
000002f0: e968 c4bb 4426 7bba a44d 4d39 ad8b 9b39
00000300: 2148 5739 112f 69b6 75f5 1235 d943 e7b6
00000310: c763 ba36 46d2 2438 05e4 ff39 0a53 103a
00000320: 3179 d33a 7835 5f3b 4682 8d3b 0df6 f63b
00000330: 2241 3f3c 4909 833c 9c35 983c 0d58 8a3c
00000340: 9d8f 903c 7634 2a3c 9da5 85bb fae2 2dbc
00000350: 398a 03bc 3962 8dbb bba9 b5b9 e329 743b
00000360: 6c6b 0e3c 4d2e fc3b 0d9f 3b3b a1a8 053a
00000370: 1b20 c339 cfd4 d738 57f4 8d36 ae3e a535
00000380: 70f1 2336 aaef 1439 525b a13a 1413 133b
00000390: 5018 a13b e184 113c b02d 3e3c 4710 a13c
000003a0: 441e dd3c 5f65 023d c291 073d 0111 063d
000003b0: c918 003d 0da5 b83c d4d4 c23b c297 43bb
000003c0: 2a59 2c3b cc7b 3b3c 78b6 a03c 3a5c 923c
000003d0: 83fb 9b3c 300c 673c c29b bc3b 7b8d 9b3a
000003e0: bf8d ea39 de16 a238 2d44 03b6 e676 a436
000003f0: f500 8ab6 9a82 c639 a400 c13a fc5c 4c3b
-2.7627177e-06 -2.6119938e-06 7.7009545e-06 7.3009055e-06 6.870343e-06 -3.1075604e-06 7.819239e-06 -4.0368864e-06
-2.2980553e-06 -5.7219772e-06 -3.976294e-06 4.827982e-06 -6.1696774e-06 7.2718567e-06 2.7537408e-06 5.1053357e-06
-2.9757846e-06 -1.4697284e-06 -1.0388894e-06 3.7193327e-06 3.2820935e-06 -8.785449e-07 5.4863012e-06 -7.3133483e-06
-3.789479e-06 5.3867134e-06 -1.7955501e-06 2.748292e-06 5.3595136e-06 1.1293401e-06 3.3180281e-06 4.0766977e-06
3.1296253e-07 -7.816269e-06 7.6047418e-06 -2.7765575e-06 -2.526334e-06 -6.309914e-06 1.1188492e-06 -3.1290053e-06
-6.1444107e-06 -1.0858325e-06 -0.00013065005 -0.00014712049 -3.0371664e-05 -3.92271e-06 6.623448e-06 -5.6472763e-06
6.8351283e-06 -4.3723094e-06 5.662867e-06 -3.3191085e-07 2.3923938e-06 -2.2841782e-07 -4.8784395e-06 -6.5437684e-06
2.4999088e-06 3.1472152e-06 6.2988997e-06 2.921909e-06 2.463004e-06 1.8508135e-06 9.3851475e-07 5.759754e-07
-4.009497e-06 2.9584777e-07 -2.6797784e-06 -2.0628066e-05 -4.5614273e-05 3.297864e-05 -8.564794e-05 -0.00021263331
-0.00025958347 -2.9196244e-05 -4.382023e-06 -3.0282072e-05 -8.810558e-06 -4.3455234e-06 -2.8448977e-07 1.8462588e-06
-5.697932e-06 -5.24607e-06 3.2534674e-06 -7.2626813e-06 4.0691492e-07 7.5219814e-06 -8.0122e-06 -2.516912e-06
-5.6213044e-06 7.642021e-06 2.7173016e-06 -1.4428018e-06 -1.4642268e-06 -8.045466e-05 -0.00011801323 -1.8212848e-05
1.8722138e-06 -8.0733975e-05 -0.0001768302 -0.0006228344 -0.0004693015 -0.0003903619 -6.2915016e-05 -6.989054e-05
-5.4336084e-05 -0.00010841511 -4.5483193e-05 -8.755471e-07 3.936927e-06 -6.744924e-06 6.3262155e-06 2.2995466e-06
3.0438782e-06 -5.9645276e-06 -1.8891968e-05 4.3895147e-05 8.008118e-05 -6.8898305e-05 -0.00012769454 -0.0001606463
-0.000119823264 -0.00031889582 -0.0005893929 -0.0011026756 -0.0018982628 -0.0042162635 -0.009402501 -0.013622291
-0.012995961 -0.008744808 -0.005393757 -0.0057267165 -0.006900992 -0.0051438515 -0.0008863888 3.8566635e-05
0.00010380472 -6.570684e-07 1.2022524e-06 6.852409e-07 7.427685e-06 9.2696797e-07 3.879196e-06 2.7224358e-05
1.6297789e-05 -4.1869283e-05 4.992928e-05 -2.0151196e-05 -0.00021063632 -0.0003343218 -0.0001539236 -0.00073068537
-0.0030756677 -0.00893087 -0.018886784 -0.026858 -0.024991753 -0.020873733 -0.015798211 -0.012281724
-0.010300801 -0.0052596875 -0.0009331504 0.00019990452 0.0002736378 4.246014e-06 1.5897944e-05 -1.4336566e-06
-4.7880703e-06 7.833913e-06 3.558648e-05 -8.982494e-05 0.00029298812 0.0008333681 0.0013797652 0.0013584885
0.0016074184 0.002867123 0.0043100337 0.0028388302 -0.00031705998 -0.007061456 -0.019623863 -0.02705882
-0.025075732 -0.020929627 -0.015262534 -0.008661574 -0.0059939516 -0.0009580592 0.00019579247 0.0002966797
0.00020530868 -3.4747102e-06 5.4746425e-07 -6.892235e-06 5.5548476e-06 3.929648e-05 0.00048807278 0.0005505538
0.001613414 0.003405897 0.0043185083 0.0075366558 0.011673244 0.015995638 0.01858025 0.016887689
0.017646605 0.010388484 -0.0040785805 -0.010613197 -0.00802856 -0.0043146876 -0.0003464947 0.0037256412
0.008692604 0.007695949 0.0028628737 0.0005098675 0.0003721722 0.000102916376 4.2305724e-06 1.23117e-06
2.4429428e-06 0.00014203662 0.0012310541 0.0022441791 0.0049162284 0.008881778 0.011607572 0.019661082
0.02699197 0.031834956 0.03309799 0.03273106 0.031273637 0.02253964 0.0059457812 -0.0029845093
0.0026298263 0.01144309 0.019618258 0.017866243 0.019040829 0.014102027 0.0057558725 0.0011867726
0.00044737567 7.729021e-05 -1.9560205e-06 4.9014225e-06 -4.112832e-06 0.0003786281 0.0014724922 0.0031183353
