assignment2/pretrained_models/model8.pt (torch_old, 3543 bytes, 1 tensors)

weight f4 [1, 784]
-9.08711e-06 -2.0284272e-06 1.0954974e-05 1.08593495e-05 -2.6667856e-06 -8.439483e-06 -9.258106e-06 7.0198807e-06
-1.1211051e-06 -8.733373e-06 7.957243e-06 -6.399101e-06 -9.768245e-06 -4.9559626e-06 -1.11481895e-05 1.0054483e-05
-6.787253e-06 -7.956642e-06 -5.456918e-06 -3.3922888e-06 1.6451177e-06 3.20733e-06 -3.883329e-06 -1.0545978e-05
-1.0288301e-05 -9.754611e-06 7.15637e-06 6.224435e-06 1.1185905e-05 -4.4794695e-07 2.180616e-06 -3.4630466e-06
3.2282585e-06 -3.6491283e-06 4.3076116e-06 -3.0823353e-06 1.254231e-06 -1.0874436e-05 1.090454e-05 -1.01465175e-05
4.418815e-06 4.8451477e-07 -0.0011377934 -0.0016919025 -0.00024287388 -2.233624e-06 -1.0510246e-05 -5.0891285e-06
-1.0574251e-05 -4.0486934e-06 1.0105211e-05 2.935538e-06 -1.0272734e-05 -3.5405685e-06 4.8853544e-06 -4.489208e-06
4.699973e-06 -1.7725578e-06 -1.5383205e-06 1.1355884e-05 -2.0927678e-06 -8.721007e-06 -7.032382e-06 -9.916917e-06
6.85942e-06 2.7509584e-06 -0.0005134097 -0.0012756448 -0.0065485816 -0.029698156 -0.016421685 -0.016818354
-0.013114781 -0.0066706766 -0.001985011 -0.0016419272 -0.000394638 -7.3182096e-06 -7.574726e-06 -1.0302346e-06
9.781098e-06 1.3435063e-07 1.0615551e-05 -3.2708147e-06 7.8440535e-06 -3.321234e-06 -2.6276723e-05 4.9091873e-06
-1.1651783e-06 2.3412747e-06 -8.1865454e-07 -3.7107748e-05 -0.00040452418 -0.008847131 -0.010487156 -0.01532434
-0.037679147 -0.07544401 -0.096494 -0.099179246 -0.090774804 -0.06291872 -0.03832252 -0.026373021
-0.018381605 -0.011111319 -0.0036039394 -0.0005700887 1.1075478e-05 -8.087475e-06 6.513517e-06 -1.0265362e-05
1.0869615e-05 3.9797746e-06 -7.700516e-05 0.00011062883 -0.0011460992 -0.010705926 -0.010557731 -0.014911423
-0.036817785 -0.07871097 -0.1533522 -0.23511669 -0.39304277 -0.5532973 -0.6410813 -0.67651564
-0.6405914 -0.5701276 -0.5052004 -0.4827419 -0.3878569 -0.2576136 -0.14277303 -0.060689908
-0.012345994 7.066727e-06 -9.521866e-06 -4.237961e-06 -6.752769e-06 1.5047959e-06 -0.00063550996 -0.0023792272
-0.0034666094 -0.013419758 -0.015454947 0.0034272044 0.03397209 0.00095918216 -0.11547054 -0.2562268
-0.5290707 -0.84094334 -1.0401763 -1.1788635 -1.1503935 -1.1413544 -1.1118438 -1.0600913
-0.8633456 -0.5704458 -0.31986058 -0.15342715 -0.046825383 -0.0010802763 -0.00011693571 1.0795505e-05
-4.171754e-06 -8.1537755e-06 0.0021409844 9.720285e-05 0.011403568 0.03400016 0.06261743 0.15596163
0.31955525 0.49227798 0.5589466 0.4880441 0.23524159 -0.080604136 -0.28677833 -0.41093296
-0.448459 -0.48594698 -0.6353036 -0.6775478 -0.61460453 -0.37760183 -0.20292452 -0.10691815
-0.03689937 -6.92354e-06 -6.3622942e-06 7.953673e-06 3.0453657e-05 0.0012424492 0.007176699 0.025193145
0.046336595 0.122386515 0.24746884 0.42667705 0.7312451 1.0409979 1.3257941 1.3933854
1.176377 0.83073807 0.5188106 0.45539495 0.485783 0.4761175 0.27693754 0.057609137
-0.020572014 -0.0025560022 0.024725586 0.023965279 -0.0021372838 0.0014731362 -5.4991237e-05 2.6341763e-06
0.00011541373 0.0043879175 0.024506172 0.06534159 0.12265258 0.23564956 0.43013683 0.6910497
0.9925269 1.2866592 1.5652627 1.6182717 1.3371603 0.84121 0.56944555 0.5371004
0.70373416 0.8004034 0.68230045 0.5203191 0.41511235 0.31545278 0.23158646 0.11502801
0.021244101 0.0035565083 -1.0067416e-06 -6.7645906e-06 0.0009415169 0.0072586513 0.037171874 0.095410086
00000000: d774 18b7 1d20 08b6 41cb 3737 8d30 3637
00000010: 07f7 32b6 4e97 0db7 4353 1bb7 518c eb36
00000020: e178 96b5 8d85 12b7 1980 0537 dcb7 d6b6
00000030: 4be2 23b7 654b a6b6 1c09 3bb7 adaf 2837
00000040: 0fbe e3b6 847d 05b7 921a b7b6 14a7 63b6
00000050: d0cd dc35 833d 5736 8b4d 82b6 a1ee 30b7
00000060: eb9b 2cb7 bca7 23b7 c020 f036 7ddb d036
00000070: 19ab 3b37 5c7d f0b4 b356 1236 b066 68b6
00000080: 0fa5 5836 8ce3 74b6 1a8a 9036 1eda 4eb6
00000090: 0d57 a835 5971 36b7 a5f2 3637 f63a 2ab7
000000a0: 5545 9436 9a0f 0235 0322 95ba d4c2 ddba
000000b0: f6ab 7eb9 5ee5 15b6 2a55 30b7 48c3 aab6
000000c0: 1068 31b7 03da 87b6 8d89 2937 2900 4536
000000d0: 0e59 2cb7 819a 6db6 e0ec a336 01a2 96b6
000000e0: 76b4 9d36 9fe8 edb5 4a78 ceb5 2785 3e37
000000f0: 7a71 0cb6 7150 12b7 b4f7 ebb6 d660 26b7
00000100: f829 e636 1b9d 3836 5796 06ba 8933 a7ba
00000110: 7c95 d6bb 8c49 f3bc c586 86bc a5c6 89bc
00000120: 61df 56bc b195 dabb f516 02bb ef35 d7ba
00000130: 6ae7 ceb9 f18e f5b6 672a feb6 9746 8ab5
00000140: 7f19 2437 0542 1034 7219 3237 2b80 5bb6
00000150: f499 0337 5ee2 5eb6 d56c dcb7 99b9 a436
00000160: 3963 9cb5 cb1e 1d36 83c1 5bb5 24a4 1bb8
00000170: 5116 d4b9 8ff3 10bc 52d2 2bbc f112 7bbc
00000180: 7355 1abd 6482 9abd a59e c5bd 7d1e cbbd
00000190: 24e8 b9bd 88db 80bd 13f8 1cbd 3c0c d8bc
000001a0: 0595 96bc 400c 36bc 1230 6cbb 0172 15ba
000001b0: d1d0 3937 71af 07b7 af8e da36 6539 2cb7
000001c0: a45c 3637 018a 8536 d57d a1b8 6701 e838
000001d0: b538 96ba e967 2fbc 55fa 2cbc 0b4f 74bc
000001e0: 3fce 16bd 3833 a1bd 5c08 1dbe 6ec2 70be
000001f0: e73c c9be e4a4 0dbf e71d 24bf 2130 2dbf
00000200: ccfd 23bf e2f3 11bf d054 01bf f229 f7be
00000210: 2e95 c6be eee5 83be 1833 12be fb95 78bd
00000220: da46 4abc b91e ed36 1ac0 1fb7 cf33 8eb6
00000230: d895 e2b6 65f8 c935 5a98 26ba cfec 1bbb
00000240: 0e30 63bb 8bde 5bbc bf36 7dbc f39a 603b
00000250: 5126 0b3d a071 7b3a d27b ecbd 2930 83be
00000260: 2d71 07bf 1048 57bf 7f24 85bf 00e5 96bf
00000270: 1840 93bf e717 92bf e650 8ebf 12b1 87bf
00000280: 3804 5dbf bc08 12bf c4c4 a3be 021c 1dbe
00000290: f9cb 3fbd 0f98 8dba 623b f5b8 571e 3537
000002a0: 18fb 8bb6 33cc 08b7 c24f 0c3b 62d9 cb38
000002b0: 08d6 3a3c c043 0b3d 913d 803d 68b4 1f3e
000002c0: bf9c a33e dc0b fc3e 2017 0f3f ebe0 f93e
000002d0: 2ce3 703e c813 a5bd 9cd4 92be ce65 d2be
000002e0: 6b9c e5be 0bce f8be 42a3 22bf c673 2dbf
000002f0: b956 1dbf 0755 c1be 72cb 4fbe e7f7 dabd
00000300: cb23 17bd c150 e8b6 b17b d5b6 c470 0537
00000310: bb76 ff37 add9 a23a 842a eb3b db61 ce3c
00000320: 71cb 3d3d c8a5 fa3d 7968 7d3e 6a75 da3e
00000330: e132 3b3f 6b3f 853f 9fb3 a93f 745a b23f
00000340: 8693 963f 40ab 543f c5d0 043f 8729 e93e
00000350: 8db8 f83e acc5 f33e c2ca 8d3e 8ff7 6b3d
00000360: a486 a8bc 9a82 27bb 508d ca3c d552 c43c
00000370: ac11 0cbb 4016 c13a 64a6 66b8 cec6 3036
00000380: 460a f238 85c8 8f3b 2bc1 c83c d0d1 853d
00000390: 4731 fb3d 1e4e 713e e53a dc3e a2e8 303f
000003a0: 3e16 7e3f 40b1 a43f 875a c83f 8723 cf3f
000003b0: 1228 ab3f 8a59 573f 2fc7 113f 697f 093f
000003c0: ec27 343f 3de7 4c3f 3eab 2e3f a233 053f
000003d0: 9b89 d43e 0783 a13e 0025 6d3e ce93 eb3d
000003e0: 1c08 ae3c 4f14 693b 611f 87b5 64fb e2b6
000003f0: 21d0 763a fbd9 ed3b 8941 183d 5d66 c33d
