assignment2/pretrained_models/model5.pt (torch_old, 3543 bytes, 1 tensors)

weight f4 [1, 784]
000000 e1 f3 18 3c 6e 39 1c bb ad 91 48 bc e2 cc 4f bc
       0.009335489 -0.0023837942 -0.012241763 -0.012683125
000010 7a 2d 69 bc e9 02 39 3a 26 7d 44 ba a3 ef 20 bc
       -0.014232034 0.00070576236 -0.0007495455 -0.009822759
000020 8d c8 33 3c 49 d0 1c bc ec 8d 81 bc 68 37 f8 bb
       0.010973108 -0.009571143 -0.015814744 -0.0075749643
000030 7a 3c 3f bc 1a 11 42 3c b1 2b 7b 3c c5 2d a9 3b
       -0.011672134 0.011844898 0.015330241 0.005162927
000040 89 91 b8 3b 58 61 06 3c 42 ad 47 bc 09 a1 83 bc
       0.0056325835 0.0082019195 -0.012187304 -0.016067998
000050 5b ad 30 3b 2d 4b 5c 3c f3 4e c4 bb b8 00 0f bc
       0.0026958797 0.013445658 -0.005990857 -0.008728199
000060 1a cf 09 bb 54 9e 80 bc ae f7 26 bc 93 23 72 3c
       -0.0021027983 -0.015700497 -0.010190887 0.014778989
000070 7e de 1a 3c 20 5b 24 bb cc ed 0c bc 54 80 a5 3b
       0.00945246 -0.0025078729 -0.008601617 0.0050506983
000080 5f c5 10 3c d1 b0 fe 3b 9c 93 e3 bb 18 cf 3e bb
       0.008836119 0.007772543 -0.0069450866 -0.0029115137
000090 77 42 d3 ba 13 57 70 3c d7 37 37 3b 9c f1 9a ba
       -0.001611783 0.014669198 0.0027956867 -0.0011821273
0000a0 c5 2c 06 bc 27 45 4f 3c 57 03 8e bc 7d 1a a8 3a
       -0.008189385 0.012650765 -0.017335577 0.0012825277
0000b0 0f 3f bd 3b cd 67 41 3c 34 7b 3d bc b8 33 1a 3c
       0.0057753394 0.011804533 -0.011565018 0.009411745
0000c0 1e d0 3b 3c 43 f8 4a 3c 85 db 15 3c 5e 66 ae bb
       0.011463193 0.012388292 0.009146576 -0.0053222617
0000d0 c6 9b 9f 3a 5e f2 ca ba 40 45 aa bb 2b 1d 83 3c
       0.0012177161 -0.0015483608 -0.0051962435 0.01600512
0000e0 05 11 b4 ba 7f f2 fd 39 ca ba 3e bc 3b 2d 84 3c
       -0.0013737982 0.00048436594 -0.011641214 0.016134849
0000f0 40 7f 9b bb 0f 86 28 3c 24 c1 5b bb 27 7a 1f 3c
       -0.004745394 0.010285868 -0.0033531869 0.009733713
000100 15 cc 40 3c d0 78 50 3c 06 a0 0d 3c a7 3a 49 bc
       0.011767407 0.012724116 0.00864411 -0.01228205
000110 b9 51 c9 bb 10 a3 7d bc 8a bd e3 bc 8b 9f 0e 3b
       -0.0061437753 -0.015480772 -0.02780034 0.0021762575
000120 e4 71 c7 bb e7 92 a7 bc 66 c8 3b 3c 11 68 a5 3b
       -0.006086575 -0.02045579 0.011461353 0.005047806
000130 d8 9b 19 bc eb ab 92 3a 10 23 56 3b d3 38 01 bb
       -0.009375535 0.0011190152 0.0032674707 -0.0019717708
000140 a7 2f 76 3c bf 4d 26 3b 25 43 11 bb b6 c1 6b 3c
       0.01502601 0.002537593 -0.0022165265 0.014389446
000150 04 fa bd 3b 19 46 48 3a 88 13 a5 3b d1 5a 87 3a
       0.0057976265 0.000763984 0.0050377287 0.0010326748
000160 9f 15 08 bc 5c 41 20 ba 8a 8c 2a ba d5 98 80 bc
       -0.008305936 -0.0006113255 -0.00065059273 -0.015697876
000170 07 d9 3b bc 33 b9 07 bc 65 e7 b7 bc 55 84 bc bc
       -0.011465318 -0.008283901 -0.022449205 -0.02301232
000180 4c aa 33 bd b3 1e 8d bd 9e f5 6c bd 53 28 c0 bd
       -0.04386358 -0.06890621 -0.057851426 -0.09382691
000190 76 ca 90 bd 6d 10 3a bd fb 5f ed bc 3f 0b 14 bd
       -0.07069866 -0.04542582 -0.028976431 -0.036143538
0001a0 c6 17 ec bc 18 a3 7f bc e5 7b 85 bc 4b 6a 5c bc
       -0.02881993 -0.015602849 -0.01629443 -0.013453077
0001b0 6a 45 00 bc d6 9b 74 b9 b1 76 a7 3a 74 ab 84 3b
       -0.00782905 -0.00023327707 0.0012776462 0.004048759
0001c0 59 bc 92 3b 6a 42 23 3c cd 7c fa 3b ba ac 4b 3c
       0.004478019 0.009964565 0.007644272 0.012431318
0001d0 d6 c8 80 bb 81 62 ba bc 51 b9 8f 3a 5f 29 ad bc
       -0.0039301915 -0.022752048 0.0010965263 -0.021137891
0001e0 64 10 5b bc 8b b1 99 bd 0a b0 01 be 68 49 59 be
       -0.013370607 -0.07504567 -0.1266481 -0.21219409
0001f0 37 f7 be be 12 9a 08 bf 3e 9a 1e bf dd ff 25 bf
       -0.37297985 -0.5336009 -0.61954105 -0.6484354
000200 15 b9 1b bf 66 c3 08 bf af 10 e7 be b5 96 de be
       -0.6082929 -0.53423154 -0.45129916 -0.43474355
000210 8b 5a b0 be 61 02 5f be db 66 ed bd 2b b0 14 bd
       -0.3444408 -0.21778251 -0.11591884 -0.03630082
000220 79 3d f9 bb e8 66 43 bc f6 35 b1 3b 92 71 ee bb
       -0.007606205 -0.01192639 0.005408044 -0.007276722
000230 0f 93 82 3c e7 9c b4 3b c1 e0 6f bc 7a 7b 3c bc
       0.015939264 0.0055118683 -0.014640988 -0.0115040485
000240 90 5d 4f 3c ce 5d 0c 3c 64 4e c5 bb 61 37 89 bb
       0.012656584 0.008567287 -0.006021308 -0.00418751
000250 2b 44 95 3c f2 53 db bb 83 6b 02 be 3f 56 8f be
       0.018220982 -0.0066933567 -0.12736325 -0.27995488
000260 d1 48 10 bf 95 f6 5a bf 38 9b 86 bf 71 20 91 bf
       -0.5636111 -0.85532504 -1.0516119 -1.1338025
000270 a7 5f 8a bf b3 ad 63 bf ab c7 58 bf bd 90 5a bf
       -1.0810441 -0.8893692 -0.8467967 -0.85377103
000280 6f 79 39 bf 3f a9 e7 be 02 2a 81 be 2b 7f cd bd
       -0.7245092 -0.45246312 -0.25227362 -0.10034021
000290 89 2e 23 bd e7 bd 75 3c 7a 44 5d 3c 10 ea cb 3b
       -0.0398393 0.0149988895 0.013505096 0.006222971
0002a0 cc f3 83 3c 9c 36 35 bc 51 2f de 3b 7e ae 74 3c
       0.016107462 -0.011060383 0.006780543 0.01493418
0002b0 03 9a 11 3c 9f 7a 07 3d 31 36 2d 3d 44 41 02 3e
       0.008886817 0.033075925 0.04228801 0.1272021
0002c0 64 1e 7c 3e 62 a7 e7 3e 68 bf 05 3f 9e e0 c4 3e
       0.24620968 0.4524489 0.5224519 0.3845262
0002d0 be 22 bf 3d 54 7f 5e be f4 b1 ca be 6f 14 05 bf
       0.093327984 -0.2172826 -0.39588892 -0.51984304
0002e0 29 1a 0b bf a6 26 c9 be 69 8d f7 be 1a fc 14 bf
       -0.5433679 -0.392873 -0.48350075 -0.58197176
0002f0 99 50 0e bf 3e 1a a0 be 25 ef 0f be a7 80 89 bd
       -0.5559173 -0.3127002 -0.1405607 -0.067139916
000300 a2 d5 e0 bb 8c 44 47 3c a8 b4 69 3c 59 e8 2f bc
       -0.0068614045 0.012162339 0.014264263 -0.010736548
000310 2d 1f 01 3c 30 1b 57 bc a1 22 3d 3b 62 f0 01 3d
       0.007880968 -0.013129041 0.0028859752 0.031723388
000320 f0 15 df 3c ef 1e 01 3e 5e 26 76 3e ee 66 d1 3e
       0.02723214 0.12609456 0.24038073 0.40898842
000330 86 09 2c 3f 16 85 73 3f d0 6b 9d 3f c3 c9 a2 3f
       0.6720203 0.9512495 1.2298527 1.2717823
000340 33 4e 82 3f 42 06 32 3f 4a c0 cd 3e e4 b6 b3 3e
       1.0180115 0.695408 0.40185767 0.35100472
000350 a5 d1 d6 3e 0c 16 f2 3e 51 15 9a 3e bf 8b e9 3c
       0.4195682 0.47282445 0.30094388 0.028509019
000360 ac d7 03 bc 10 6c 50 3c e5 34 22 3d 0d f1 c8 3c
       -0.008047026 0.012721077 0.039601225 0.024529004
000370 4c 8d 52 bc 4b 57 44 3c a0 c5 04 3c 34 e3 15 3b
       -0.012851071 0.011983703 0.008103758 0.002287102
000380 f7 f2 3f 3c ce 4f 45 bc d6 1d bb 3c a2 49 87 3d
       0.011715642 -0.012042953 0.022841375 0.06605841
000390 5a 14 ed 3d 42 b1 80 3e 48 7a d5 3e e8 5d 2d 3f
       0.115761474 0.25135237 0.41694856 0.67721415
0003a0 45 8e 74 3f b5 a8 9f 3f 1f 28 c2 3f 20 6b c3 3f
       0.95529586 1.247336 1.5168494 1.5267067
0003b0 00 0d 9f 3f c7 9b 47 3f d9 f8 0c 3f 52 47 13 3f
       1.2425842 0.7797207 0.5506721 0.575307
0003c0 4d f1 47 3f bd 6e 63 3f 08 36 37 3f a6 ea 0c 3f
       0.7810257 0.8884085 0.7156682 0.55045545
0003d0 de cd e3 3e f9 9f a7 3e 08 50 5d 3e 4f df 93 3d
       0.44493002 0.32739237 0.21612561 0.07220327
0003e0 93 5b 76 3c 0f b3 58 bb 1c 00 95 3a 48 2a 81 ba
       0.015036481 -0.0033065712 0.001136783 -0.000985452
0003f0 73 ad 69 bc 73 fa 00 bc d6 36 15 3d 1d bb cc 3d
       -0.014262545 -0.007872212 0.03642925 0.099966265
