assignment2/pretrained_models/model9.pt (torch_old, 3543 bytes, 1 tensors)

weight f4 [1, 784]
0	0xbc94c2ee	-0.018159356
1	0xbc4b2c61	-0.0124007175
2	0x3cac4f0c	0.021033786
3	0xbb5dd671	-0.003384974
4	0x3c965feb	0.018356284
5	0xbcc8f457	-0.024530573
6	0xbcdec079	-0.027191387
7	0x3cd95931	0.026531788
8	0xbc0db27c	-0.008648511
9	0xbc587272	-0.01321088
10	0xbc4870d5	-0.0122339325
11	0x3a9ef1b9	0.0012126482
12	0xbc28bf7a	-0.010299558
13	0xbc9b1a2d	-0.01893338
14	0xbbc15366	-0.0058998344
15	0x3bfb726e	0.007673553
16	0x3c2ecee4	0.010669444
17	0xbc993575	-0.018702248
18	0xbc5d4d89	-0.013507255
19	0xb9ec74b9	-0.00045100393
20	0xbbc183cc	-0.005905604
21	0x3bff8598	0.007797908
22	0x3c2faee6	0.010722851
23	0xbc2fabe6	-0.010722136
24	0x3b77ac8e	0.003779206
25	0xbcde1993	-0.027111804
26	0xbc8e3196	-0.017357629
27	0xbc18ae57	-0.00931891
28	0x3c79c924	0.01524571
29	0xbce0557c	-0.027384512
30	0xbc90851a	-0.017641593
31	0xbc9cbbb5	-0.019132474
32	0xbcb1cdb9	-0.021704542
33	0x3cb49f3e	0.022048589
34	0xbcbea99f	-0.023274241
35	0xbc908648	-0.017642155
36	0x3c2f6b24	0.010706697
37	0xbc8b3dd8	-0.016997263
38	0xbcbc0551	-0.022951754
39	0x3c630e01	0.013858319
40	0x3c71710b	0.014736424
41	0xbca9028a	-0.020631094
42	0x3cc146cb	0.023593327
43	0xbc207f21	-0.009795935
44	0x3ccbf720	0.024898112
45	0xbc422a44	-0.011850897
46	0xbc1d2a81	-0.009592653
47	0x3b59a8b7	0.0033212134
48	0xbcc9d24e	-0.024636414
49	0xbbe4e4f1	-0.0069852998
50	0xbcd530b3	-0.026024198
51	0x3c0aebdd	0.008479086
52	0x3bda42a0	0.0066607744
53	0x3c1749a9	0.009233871
54	0x3b42f6e6	0.0029749214
55	0xbcb0b7f9	-0.0215721
56	0x3b82b404	0.0039887447
57	0x3c2af7cb	0.010435055
58	0x3c9aeb4d	0.018911028
59	0xbcaccc1c	-0.02109342
60	0x3ae8b43d	0.001775391
61	0x3b46280e	0.0030236277
62	0x3c2754da	0.010213101
63	0xbafaffd8	-0.0019149734
64	0xbbba4848	-0.005684886
65	0xbc5e3c8f	-0.013564243
66	0x3c66d059	0.01408776
67	0xbc833dfb	-0.016020766
68	0x3c2158ee	0.009847863
69	0xbc41355f	-0.01179251
70	0x3c19a1f7	0.009376994
71	0xbb3ccb5a	-0.002880773
72	0xbcb4ab00	-0.022054195
73	0xbcdd9e9a	-0.027053166
74	0xbcaaa296	-0.02082948
75	0xbcb602a3	-0.022218054
76	0xbc7f28d5	-0.0155737
77	0xbb3190a1	-0.0027094262
78	0xbc3f748f	-0.011685505
79	0xbc615ecf	-0.013755514
80	0xbc23f20d	-0.01000644
81	0x3cb73bc3	0.022367364
82	0xbcdceb24	-0.026967593
83	0x3c62abbb	0.013834889
84	0xbcde07db	-0.027103355
85	0xbbd50a94	-0.006501505
86	0x3be78914	0.0070659015
87	0xbc117b9c	-0.008879568
88	0xbbd0c9d8	-0.006371718
89	0x3bd6d0c2	0.0065556476
90	0xbc8ad8dd	-0.016949112
91	0xbc984bc1	-0.01859081
92	0xbc93a950	-0.01802507
93	0xbcd83f49	-0.026397364
94	0xbcb4284e	-0.021991875
95	0x3c4a0816	0.012331029
96	0x3c5da1cc	0.013527345
97	0x3c076a8c	0.008265149
98	0xbc8d2196	-0.01722793
99	0xbc93559b	-0.017985156
100	0xbd0b28fa	-0.033974625
101	0xbc2e0069	-0.010620215
102	0xbab509b1	-0.0013812092
103	0xbcf67168	-0.030083373
104	0x3b1b5d8c	0.0023706881
105	0xbc317626	-0.010831391
106	0xbcdf05ce	-0.027224448
107	0xbca145f0	-0.01968667
108	0xbcd8b436	-0.026453119
109	0xbca7c8a4	-0.020481415
110	0x3c6ab7d8	0.014326058
111	0xbaa63f4b	-0.0012683658
112	0x3cb2455f	0.021761594
113	0x3c1c3b84	0.009535674
114	0xbcd15da0	-0.02555734
115	0xbc95915f	-0.018257795
116	0x3b1d225a	0.0023976774
117	0xbca13119	-0.019676732
118	0x3bcd55ae	0.0062663173
119	0x3caa3cdb	0.020780971
120	0x3ccabd3e	0.02474844
121	0xbc83ddf6	-0.01609705
122	0xbcc0630a	-0.023484726
123	0xbc4e233b	-0.012581642
124	0xbd543ac4	-0.051813856
125	0xbdd8a862	-0.105789915
126	0xbe27b7a9	-0.16378655
127	0xbe2e954a	-0.17049137
128	0xbe25d80d	-0.16195698
129	0xbdf06d63	-0.11739614
130	0xbdf69aeb	-0.12041267
131	0xbdceb43b	-0.1009297
132	0xbd8c8f4c	-0.06863269
133	0xbd736b3f	-0.05942845
134	0xbc9fd571	-0.019510956
135	0xbcf0b457	-0.029382868
136	0x3b1effb6	0.0024261302
137	0xbb83884c	-0.0040140506
138	0x3cd4015c	0.025879554
139	0x3c7c0b9d	0.015383628
140	0x3a052dd8	0.00050803786
141	0xbc74dd6a	-0.014945367
142	0xbc490049	-0.012268134
143	0xbc877bec	-0.016538583
144	0x3c9377fa	0.018001545
145	0xbcd089d4	-0.025456347
146	0x3c0539e8	0.008131482
147	0xbc658d7f	-0.014010786
148	0x3cfadd7e	0.030623194
149	0xbc715f2b	-0.0147321625
150	0xbccdc936	-0.025120359
151	0xbd3226c6	-0.04349401
152	0xbe052f1a	-0.13006249
153	0xbe402459	-0.18763866
154	0xbe8d036d	-0.27541676
155	0xbea47cfa	-0.321266
156	0xbe92f32d	-0.28701153
157	0xbe94ccf9	-0.29062632
158	0xbe59eba6	-0.21281299
159	0xbe3da1c2	-0.18518737
160	0xbe0a6f64	-0.13519055
161	0xbda46303	-0.080266975
162	0xbd6b01d7	-0.0573748
163	0xbcfffa83	-0.031247383
164	0x3cad40ec	0.021149121
165	0x3a4fbd78	0.00079246564
166	0xbca9d222	-0.020730082
167	0x3c0d810c	0.008636724
168	0x3c0a8271	0.008453951
169	0xbbad6cdf	-0.0052925195
170	0xba957683	-0.0011403117
171	0xbbf0028e	-0.0073245233
172	0x3b9aef96	0.004728268
173	0xbb93defa	-0.004512665
174	0x3d165ece	0.036711507
175	0x3d6acf07	0.057326343
176	0x3d95f9b1	0.073230155
177	0x3d9e6d11	0.077356465
178	0x3daf9ccf	0.08574831
179	0x3d019a6e	0.031641416
180	0xbcca3588	-0.024683729
181	0xbe007fef	-0.12548803
182	0xbe7ceb59	-0.24699153
183	0xbe8ec2a5	-0.27882877
184	0xbe94b8b7	-0.29047176
185	0xbe76ed2a	-0.24113908
186	0xbe610398	-0.21974027
187	0xbe03e778	-0.12881267
188	0xbdae1d12	-0.085016385
189	0xbd89a7ff	-0.06721496
190	0x3ab1e05b	0.0013570891
191	0x3c026122	0.007957729
192	0xbac06bb8	-0.001468054
193	0x3c2ecac3	0.010668459
194	0x3c609f39	0.013709837
195	0xbc2a95f5	-0.010411729
196	0x3c9ebe79	0.019377934
197	0x3c4bd489	0.012440809
198	0x3c0c307b	0.0085564805
199	0xbbc6fb83	-0.006072463
200	0x3d2cc332	0.04217834
201	0x3d67a7cb	0.056556504
202	0x3dcd1c5e	0.10015176
203	0x3df3e134	0.119081885
204	0x3e3b79d4	0.18308192
205	0x3e665d3a	0.224965
206	0x3e750dee	0.23931095
207	0x3e75a3a8	0.23988211
208	0x3e631aa5	0.22178133
209	0x3dcb1f37	0.09918063
210	0xbd44f93c	-0.04808925
211	0xbdcf94cd	-0.10135803
212	0xbd0fa63e	-0.03507065
213	0xbcdee3dc	-0.027208261
214	0x3d295c49	0.041347776
215	0x3d71ef57	0.059066143
216	0x3d7813db	0.06056581
217	0x3d2814b8	0.041035384
218	0x3cb4d2e9	0.022073226
219	0x3c6e808f	0.014557018
220	0x3cedb639	0.029017555
221	0x3c951818	0.018199965
222	0xbca91743	-0.020640975
223	0x3cd996e3	0.026561206
224	0xbc958694	-0.018252648
225	0x3c2be34c	0.0104912035
226	0x3cc1b443	0.023645526
227	0xb96f8642	-0.00022842831
228	0x3d6319ab	0.0554444
229	0x3dc9f5b6	0.09861319
230	0x3e0c243c	0.13685697
231	0x3e4a2d0f	0.19743751
232	0x3ea6d1c1	0.32581905
233	0x3ece4d53	0.4029337
234	0x3ee8ea6e	0.45491356
235	0x3ef7017b	0.48243317
236	0x3ecdbd5b	0.4018353
237	0x3e844df4	0.25840724
238	0x3df8af13	0.12142768
239	0x3d7b2d01	0.061322216
240	0x3dba1d51	0.09087623
241	0x3e4dc30f	0.2009394
242	0x3e699113	0.22809248
243	0x3e8a893c	0.27057827
244	0x3e4fc446	0.20289716
245	0x3e127003	0.14300542
246	0x3db6cff7	0.08926385
247	0x3ca0b16e	0.019615855
248	0x3c8381ee	0.016053166
249	0x3c870514	0.016481914
250	0x3b7920cd	0.0038013936
251	0x3cb9e6d5	0.022693077
252	0x3c28a84c	0.010294031
253	0xbb3c3ae2	-0.002872162
254	0x3b1a5f0c	0.0023555188
255	0x3cb36ff9	0.021903979
